tennis_checkpoint_actor_05score.pth (torch_old, 22388 bytes, 6 tensors)

fc1.weight f4 [64, 48]
000000 8d 1c cb bd 32 33 02 be c0 f2 b0 bb 47 61 d2 3d
       -0.09917555 -0.12714842 -0.005400032 0.102724604
000010 23 d8 19 3e e4 61 70 3d 71 22 2c bc f1 fb 92 bd
       0.15023856 0.058687106 -0.010506258 -0.0717696
000020 2d 87 30 3b 7b 41 d5 bc e7 78 8c bd 1b da 57 3d
       0.002693604 -0.0260322 -0.06858998 0.052698236
000030 06 15 1a be b3 e5 26 3b 99 9d f1 3c b2 cd bf bd
       -0.15047082 0.0025466501 0.029494094 -0.09365405
000040 90 8e ea 3d a9 c1 aa 3c b3 6f 05 bc a4 bc c6 bd
       0.11452973 0.020844297 -0.008144307 -0.09703949
000050 79 43 22 bf 42 76 0a 3e 3f 62 92 39 45 55 a0 3d
       -0.63384205 0.13521674 0.0002792049 0.07828764
000060 35 0c 42 bd e1 ff 98 bd e7 0c 8e 3d 92 5d 07 3e
       -0.047374923 -0.0747068 0.06936055 0.13219288
000070 d8 ad f6 bd 92 10 9d 3d c9 f3 8d bd 08 64 98 bc
       -0.12044877 0.07669176 -0.06931264 -0.018602386
000080 ae 50 1e bd 27 43 29 bd 68 e9 89 bd d2 c0 88 bc
       -0.03865116 -0.041323807 -0.06733972 -0.016693506
000090 d2 48 16 3e d8 8a 27 3e 24 f2 54 3d ef cf 5d 3d
       0.14676216 0.16361558 0.051988736 0.05415338
0000a0 d8 b6 80 3b 30 47 ea bc 96 56 7b bd b8 7b 89 bd
       0.0039280467 -0.028598398 -0.06136187 -0.067130506
0000b0 a3 90 fb 3e 24 42 57 3b a8 87 de 3d 20 7f 14 bd
       0.49133787 0.003284582 0.10865718 -0.03625405
0000c0 39 5b 6a 3d 52 a0 d3 bd 13 79 16 3d 2f 4f bc bd
       0.057215903 -0.10333313 0.03673656 -0.091947906
0000d0 64 84 0c bd 66 e4 0b bf 02 bc ae bc 89 25 91 3d
       -0.034305945 -0.54645383 -0.021329883 0.070872374
0000e0 5a 7b 06 be ec 6c 2d bd 14 7e 1c bd 0b 7b 9a bd
       -0.13132992 -0.042340204 -0.038206175 -0.07543
0000f0 e8 50 8f bd 02 e1 63 3d 39 c4 04 3d c3 74 8a 3d
       -0.069978535 0.055634506 0.032413695 0.06760552
000100 c4 c5 c5 3c 05 c6 f7 bd c8 5a 9b 3d de dd 49 bb
       0.024142154 -0.12098316 0.075856745 -0.003080241
000110 f6 62 80 be 76 4e f3 3e b1 ed 74 bd d5 0e 6a 3d
       -0.250755 0.47520798 -0.059796993 0.05714305
000120 ce ac 1f 3d 74 5f ad bd f9 ea 1b bd b6 4c fc 3c
       0.03898316 -0.08465472 -0.038065884 0.030798297
000130 09 be ab bd 0e b9 dc be 61 02 36 3d a7 7d 56 3c
       -0.08385856 -0.43109936 0.044435862 0.013091481
000140 72 13 8c bd 58 ef c8 3c 31 66 47 3b d7 36 0c be
       -0.068396464 0.02452819 0.00304259 -0.13692795
000150 ad fc 2b 3e 96 d7 ce bd 13 b5 9a 3c b7 b7 a2 3d
       0.16795607 -0.100997135 0.018885171 0.07945197
000160 32 34 ab bc 54 d1 fe bd 20 1f cc bd 2f bf 3f 3d
       -0.020898912 -0.1244227 -0.09966874 0.046813186
000170 52 cd 0a 3e 6c d2 e6 3e 68 40 b6 3d 81 3f 46 3d
       0.13554886 0.45082414 0.08899003 0.048400406
000180 26 8a 9f 3d a2 b9 97 3c 0b 47 38 3d 77 38 56 3c
       0.077900216 0.018521134 0.044989627 0.013074986
000190 27 3a 31 be 95 10 90 bc 8d 32 3b 3c 58 0d 5a be
       -0.1730734 -0.017586032 0.011425626 -0.21294153
0001a0 57 d1 6e bb 35 e8 e5 3d 9d 35 29 3e 81 d6 1b be
       -0.0036440694 0.112259306 0.16524358 -0.15218545
0001b0 18 4e 69 3d ee 94 84 be 42 5b 94 bd 47 e6 c8 bb
       0.05695924 -0.25894874 -0.072439685 -0.006130967
0001c0 6f 0c 60 3e 27 b4 64 3d d4 f2 89 3d f9 bf 92 bd
       0.21879743 0.05583587 0.06735769 -0.07165522
0001d0 b9 bb cf 3d d1 ff c6 be c1 be 42 3d ad 92 d6 bd
       0.10143227 -0.38867047 0.0475452 -0.10477195
0001e0 4d c1 40 bc cc 41 32 3e 50 74 a7 3b 29 d6 16 3e
       -0.0117648365 0.17407912 0.005110301 0.14730133
0001f0 eb f2 f2 bc b1 0a 05 3e fa ed 6e 3c a3 30 23 3e
       -0.029656848 0.1299236 0.014583105 0.15936522
000200 08 76 6f 3d 4a cd 98 3e 59 f4 ba 3d b3 b1 e2 3d
       0.058462173 0.29844123 0.09128637 0.1106905
000210 61 2d 0b be 31 db 1d be 73 25 0f bd 1d 73 17 3e
       -0.1359153 -0.15415646 -0.034947824 0.14790006
000220 c5 13 01 be d6 8d 0d 3e 8b 68 fa 3d 53 86 3f be
       -0.12605198 0.13823637 0.12226971 -0.18703584
000230 a8 8b 21 3d 12 68 6d be 31 f0 84 3d 56 d7 af be
       0.039439827 -0.23184231 0.064911254 -0.34343976
000240 3a 84 89 bc e0 97 3c be 2d 02 86 bd 5b 7f cf 3d
       -0.016786683 -0.1841731 -0.06543384 0.10131713
000250 ff e5 53 3d 12 88 46 be 2e f5 80 3d df c0 ae 3d
       0.051733013 -0.19387844 0.06296764 0.08532881
000260 a8 d6 ca 3c 44 67 58 3e b0 6b 1c 3e d7 a2 9a 3c
       0.02476056 0.21133143 0.15275455 0.018876476
000270 d7 01 00 be 24 ab c1 3c fe 3c 05 bd ca 80 4f 3e
       -0.12500702 0.023641177 -0.03252887 0.20263973
000280 b1 a3 9c 3d aa bf f2 3d 5d 51 91 3d 71 db cf 3e
       0.07648409 0.11852963 0.07095597 0.40597108
000290 24 c2 eb bb 11 98 79 3e d2 da 3a 3e 67 04 4e 3e
       -0.007194774 0.24374415 0.18247536 0.20118867
0002a0 f2 32 7e 38 b2 6d 81 be 82 a1 d8 3c 71 61 de bd
       6.0605766e-05 -0.25279003 0.0264442 -0.10858429
0002b0 81 cb 99 3d 8d 1c 5f bd 4a c0 b3 3c df 98 ed bd
       0.075095184 -0.054470588 0.021942277 -0.116014235
0002c0 de 36 2e 3e 6e 8a 69 3d 43 ae f6 3d d4 50 24 be
       0.17013118 0.057016782 0.120449565 -0.16046458
0002d0 7e b6 b3 3c a8 ba ec bb be 32 58 bd 60 bb 46 3b
       0.021937605 -0.0072243996 -0.052782767 0.0030324087
0002e0 f9 54 17 3d d7 44 e6 3d 03 dd e1 bc ad e8 01 be
       0.03694627 0.11243599 -0.027571207 -0.12686415
0002f0 16 7c b3 3b ff 72 bf 3e 0d 87 c2 3c c6 94 7e bc
       0.0054774387 0.37392423 0.023746038 -0.0155384
000300 fb 4d 35 be 7d bb 56 3e fd e0 7f bc 49 d0 97 bc
       -0.17705528 0.20969959 -0.015617606 -0.018531935
000310 15 1c 93 3e 7a fb 71 3e 98 ac b0 bc b8 2f 37 bd
       0.28732362 0.23631087 -0.021566674 -0.044723243
000320 c9 99 46 be 9a c5 5b 3e 17 3e 99 3d b5 6e 0b bd
       -0.19394602 0.21462098 0.07482546 -0.034041125
000330 75 82 fa 3d 79 87 da bc 49 37 d4 bd 46 22 00 3d
       0.12231914 -0.026675927 -0.10362107 0.031282686
000340 05 8e 93 bd b1 a9 4f 3e a7 9b 93 bc 4e b0 3b 3e
       -0.072048225 0.20279576 -0.018018557 0.18328974
000350 a0 87 4d be 08 6f 75 be 1e d1 84 bb 22 f4 9b 3d
       -0.20071268 -0.23968136 -0.004053249 0.07614924
000360 c3 d5 82 3d 52 a4 92 3d 91 f2 2d bd 1d 8d ab 3c
       0.06388428 0.07160248 -0.042467657 0.020941311
000370 01 bb ca bd 38 18 db 3e 4c 50 8d 3c 41 77 ba 3d
       -0.098989494 0.42791915 0.017250203 0.09104777
000380 95 d9 21 bd 85 7e 1c 3e e1 7a be bd 84 65 57 3c
       -0.039514143 0.15282638 -0.09300781 0.013146762
000390 ab 50 6e be cf 83 b9 3c 8b 36 a8 3d 8a 8f 2c 3d
       -0.2327296 0.022645859 0.08213528 0.042129077
0003a0 e1 d0 a3 3c e6 04 7c 3d 32 14 8d 3c 6b a2 67 bd
       0.019997062 0.06152811 0.017221544 -0.05655138
0003b0 dc 02 4b 3e f6 a8 dd bd c8 f4 b6 3b 30 e5 08 be
       0.1982531 -0.10823242 0.0055833794 -0.13368678
0003c0 12 79 a0 bc b5 7b e3 3d d7 83 d2 bb 51 70 7f 3d
       -0.01958898 0.111075796 -0.006424408 0.062362973
0003d0 dc 31 4c 3e 4c 69 ad 3e 6f df 22 3d 11 2e 1d 3d
       0.19940895 0.33869398 0.039763864 0.03837401
0003e0 84 f0 b0 3d 53 41 83 3e 9b a3 23 bd f5 7f bd 3d
       0.08639625 0.25635776 -0.03995095 0.092529215
0003f0 1f bf c5 bc 19 fa 0e bd 21 c7 a8 3c 40 ce 0c bd
       -0.024138985 -0.03490648 0.020602765 -0.034376383

fc1.bias f4 [64]
000000 66 fc e9 bc 1e ca 3f 3e 81 f9 78 bd 62 3a bd be
       -0.028562736 0.18729445 -0.06078482 -0.36958605
000010 02 44 98 3e a6 22 0d 3e b7 d7 38 be 3f 10 08 be
       0.29739386 0.13782749 -0.18051039 -0.13287447
000020 45 ba 41 3d c0 16 d9 3e 4b 56 14 be 83 cd aa 3e
       0.04729678 0.4240017 -0.14486043 0.33359918
000030 b8 8b bc bc 8a 19 f3 3c b9 cd 0c bd 31 2b 9c bd
       -0.023015842 0.029675264 -0.03437588 -0.076254256
000040 a0 75 e9 3d e4 04 4a 3d 83 1d 0e bd b8 62 68 3e
       0.11399388 0.04932107 -0.034696113 0.22693908
000050 65 ad d8 3e da ec ab 3d 59 6e 33 bd ec 7a 8b 3d
       0.4231979 0.08394785 -0.043806408 0.06810555
000060 a6 0c 23 be 13 1f 87 3e 77 ef ec bd fa dc c0 3e
       -0.15922794 0.26390895 -0.11569112 0.37668592
000070 5e ef a5 3e e6 38 a4 3d 2c 14 8e 3d 24 84 21 3b
       0.32409185 0.08018665 0.06937441 0.0024645412
000080 7b 3b ba 3e 38 0c 86 bd 7a 12 ac be d9 6d 04 3e
       0.36373505 -0.06545299 -0.33607846 0.12932529
000090 da ea 29 3e 72 2b e0 3e a7 b2 32 bd f6 a9 8d 3e
       0.16593495 0.43783146 -0.043627407 0.27668732
0000a0 93 c0 c5 bd 49 37 88 3c 7b 3f 3a 3e d6 88 bd 3c
       -0.09655871 0.016627925 0.18188278 0.023136538
0000b0 ff c9 1f bd a2 4e 1c be 24 f4 0c 3f b2 f6 ea bd
       -0.039010998 -0.15264371 0.5506003 -0.11472835
0000c0 f5 33 e3 3c 03 be af 3c b1 23 bd bd 82 80 a7 be
       0.027734736 0.02145291 -0.09235323 -0.3271523
0000d0 57 9b 60 bb 48 49 46 be 0b ae c2 3d 2d ef 02 3e
       -0.0034272277 -0.19363892 0.09505852 0.12786551
0000e0 9e c4 96 3e 95 92 67 3e ce 30 d9 3c e6 8e 32 be
       0.29446882 0.2261451 0.02651253 -0.17437324
0000f0 2a 72 5c be bc 62 83 3d 51 70 71 bd c2 e2 65 3e
       -0.21527925 0.064153165 -0.058945004 0.22449782

fc2.weight f4 [32, 64]
000000 66 ce cf bd ea df 77 bd c6 5b 05 be 0d 3c 22 be
       -0.10146789 -0.060516275 -0.1302329 -0.1584322
000010 8f 0d 9f 3d 38 4d 55 3e 5d b4 8b bd ec 77 3b be
       0.07766258 0.20830238 -0.06821511 -0.18307465
000020 8e bb 54 be 86 3b 04 bd f1 4a 10 be c9 a1 00 3d
       -0.20774671 -0.03228333 -0.14091088 0.03140429
000030 35 64 5b be 92 b9 54 3e ce c3 07 be a0 20 63 be
       -0.21424945 0.20773914 -0.13258287 -0.22180414
000040 78 4b 23 3e 61 ce 1e 3e f8 09 cb 3d 44 79 c9 bd
       0.15946758 0.15508415 0.09914011 -0.09837583
000050 91 92 2b 3e 0b 15 27 be 13 68 a9 bd b4 4a b7 3c
       0.1675513 -0.16316621 -0.08271804 0.022374488
000060 c8 fd b0 be 2e bb 03 bd d9 6c 54 be ce ca 78 3b
       -0.3456862 -0.03216093 -0.20744647 0.0037962678
000070 08 ae aa 3e 1e c6 22 bd 35 f1 2a 3e 8a d8 ad bc
       0.333359 -0.03973972 0.16693576 -0.021221418
000080 83 31 1b 3e 33 6d 78 be 29 d4 08 bd d6 cf 39 3e
       0.15155606 -0.24260406 -0.033405457 0.1814569
000090 f0 cb 3e 3d 29 8b 58 3d 9a 63 87 bd 88 a1 1d 3e
       0.04658121 0.05286709 -0.06610794 0.1539365
0000a0 75 59 be 3d 6b e3 94 3d b9 a0 71 3e b9 f9 a5 3e
       0.09294406 0.07269939 0.23596467 0.32417086
0000b0 69 08 12 3e 72 04 b8 be 57 ec 51 3e b9 cb 61 bd
       0.1426102 -0.35940892 0.20500313 -0.055125926
0000c0 f7 33 08 bd 03 d7 35 3e 19 14 bb bd b9 17 27 be
       -0.033252683 0.17757802 -0.09134693 -0.16317643
0000d0 1b 0b 5d bd 6d bd 9f be 35 0b 19 3e 72 f8 90 3e
       -0.05396567 -0.31199208 0.14945681 0.2831455
0000e0 92 6b b7 3c ad 27 b5 3e 9c 41 8f bd d0 26 f9 bd
       0.02239016 0.35381833 -0.06994936 -0.12165606
0000f0 ff 7b bd be 60 9f 7b 3e fb 90 68 bd cc 09 78 bc
       -0.37008664 0.24572515 -0.05677889 -0.0151390545
000100 60 95 1e 3d f1 a9 1a 3d 90 22 89 be df de 40 3e
       0.038716674 0.037759725 -0.26784182 0.18835019
000110 c4 be 06 3c 3d 74 62 be ce d8 3a 3e bc 39 05 bf
       0.008224193 -0.22114654 0.18246767 -0.5204122
000120 36 8b bb 3d b7 06 72 be 6e 86 8e 3e ab d4 05 3e
       0.09157412 -0.23635374 0.27836937 0.13069408
000130 ac 69 d7 3d 42 8a fa bc ed aa e9 be 21 52 cf 3d
       0.10518202 -0.030583505 -0.4563822 0.10123087
000140 e7 12 cd bd 55 5e 07 bd 49 11 84 be 7f ba 36 be
       -0.10013371 -0.033048946 -0.25794438 -0.1784458
000150 94 c2 68 3d cd 9a 7a bb 4a 4b f6 bd ff aa 85 be
       0.05682619 -0.003823924 -0.12026079 -0.26107022
000160 1c b8 0a be 69 f9 9b 3d fa 6a 21 be 3e c7 37 bd
       -0.13546795 0.076159306 -0.15763465 -0.044867747
000170 f9 bc 45 be 43 a0 cd bd a7 f3 b8 3e ed 99 95 3e
       -0.19310369 -0.10040333 0.36123392 0.29219
000180 dd 5d 7d be 86 cc e5 3d ff 9a d7 3e f9 5a 59 3e
       -0.24742837 0.112206504 0.4211044 0.2122611
000190 79 5f 18 be 4b a5 89 be 35 94 01 be 15 39 cf 3d
       -0.1488017 -0.2688392 -0.12654193 0.101183094
0001a0 cc a5 2a be 33 b2 25 be c2 6e 34 3e 8c b3 80 be
       -0.16664809 -0.16181259 0.17620376 -0.25136983
0001b0 70 b1 3d 3e 94 2a 85 3e a8 c0 02 be b2 90 1f 3e
       0.18524718 0.26009047 -0.12768805 0.1558254
0001c0 b7 d9 b2 be d1 54 08 be 58 da aa 3e 33 f6 24 3e
       -0.34931728 -0.13313605 0.33369708 0.16109543
0001d0 8c 09 9c 3d 7f 03 e4 bd 17 af a2 3e 6a aa 8d bd
       0.076190084 -0.11133479 0.31774208 -0.069172695
0001e0 7e aa 51 3e f2 c3 f7 be 3d 41 69 bc 5e de fd 3e
       0.20475194 -0.48391682 -0.014236745 0.49583715
0001f0 0d 45 65 3b 10 c4 c6 bd b5 57 02 3e ed 41 67 be
       0.0034983784 -0.09705365 0.1272877 -0.22583742
000200 df 81 d7 bd 4f bf 7b bb 4b 08 33 bd a1 1c 8b 3d
       -0.10522818 -0.003841359 -0.04370908 0.0679257
000210 42 20 7c be 4b e8 fc 3c fe 53 13 be fe 9b df bd
       -0.2462168 0.030872485 -0.14387509 -0.10918425
000220 39 16 2f 3e 2c cb 50 3e e2 a7 9a 3e e7 61 84 3e
       0.17098321 0.20390004 0.3020621 0.25855944
000230 df 13 77 bd d6 c1 f9 3d 6d f2 66 3e 65 d1 0a 39
       -0.060321685 0.121951744 0.22553416 0.00013238711
000240 9c 1c a6 bd f6 1d 9f be 25 9d 7b be cf c2 62 be
       -0.081109256 -0.31077546 -0.24571665 -0.22144626
000250 ca a2 72 3d 88 01 c1 bc 72 99 e1 3d cc 28 b3 3e
       0.05923728 -0.0235603 0.110155955 0.34992063
000260 26 d3 a6 be 57 5e 1c 3e 8b 61 8b bd 25 65 2f 3e
       -0.32582968 0.15270363 -0.06805714 0.17128427
000270 e4 c3 10 be 6d 3d ee bd b3 7a bb 3d bb 64 b2 3b
       -0.14137226 -0.1163281 0.091542624 0.005444137
000280 d8 bb 7f be d6 a8 20 3e 77 b9 df 3e bf 76 d1 3d
       -0.24974 0.15689406 0.43696186 0.10227727
000290 ae 61 08 bf 64 ed d9 3b 3f 51 56 be 9a 95 47 3c
       -0.5327405 0.0066506136 -0.2092943 0.012181664
0002a0 9f e4 b6 be cb fd 28 bf 00 db 3b be de 34 27 be
       -0.357213 -0.6601226 -0.1834526 -0.16328761
0002b0 b7 de d7 3c 8b 3a a9 3e 8e bb 48 be 75 c7 7e be
       0.026351316 0.33052477 -0.19602796 -0.24880774
0002c0 c1 f5 b1 bd 4f f8 0a bb 86 6f b3 3e d3 24 cb 3d
       -0.08689452 -0.0021205132 0.35046023 0.09919133
0002d0 6c c1 6c bd 59 d7 56 3d 3e fe 9b 3d 17 ff 68 3c
       -0.05780165 0.052451465 0.07616852 0.014220974
0002e0 dd 2c 00 bc c4 d2 e9 3c 97 bc 8f 3c 8f cd 52 be
       -0.007823196 0.028542884 0.017545981 -0.20586227
0002f0 d0 88 96 3e a7 f6 53 be 22 8d e5 bd 3a d9 fa bd
       0.29401255 -0.20699559 -0.112085596 -0.12248464
000300 b2 f6 66 3e c4 94 7d 3c f8 1e ab 3d 5c 44 8e 3d
       0.22555044 0.015477363 0.08355516 0.06946632
000310 5e 87 d5 39 f9 82 88 b8 31 50 d0 bd 67 74 45 3e
       0.00040727382 -6.509381e-05 -0.10171545 0.19282685
000320 b5 0d 9c 3e f2 12 35 3e 2b 4e 27 3e 1e ef b9 be
       0.30479208 0.17683008 0.16338412 -0.36315244
000330 51 16 e0 3d 9b 0b b7 be 62 66 8e bc 80 04 2b be
       0.109417565 -0.35751042 -0.017382804 -0.16700935
000340 48 2e ef ba f2 94 b7 3e aa 08 fc bd 7f ba be bd
       -0.0018248046 0.35855824 -0.1230634 -0.09312915
000350 e8 2a c5 bc 83 47 b0 bb 17 50 b1 bc 5a 12 45 bf
       -0.02406831 -0.0053796186 -0.021644635 -0.7698113
000360 2c e9 69 be b3 15 d4 3c 88 c3 2e 3c 40 48 6c 3d
       -0.22842854 0.025889253 0.0106667355 0.05768609
000370 a9 6a 87 3d 97 b1 e2 bd f2 27 57 be 4d dd 1a bc
       0.06612141 -0.11069029 -0.21011332 -0.009452176
000380 70 d5 de be 3a d9 77 3d a8 4b 07 be e8 f3 5c be
       -0.43522215 0.060509898 -0.13212454 -0.21577418
000390 98 55 38 3d 29 62 8f be d8 ae 18 bd 29 dd be bb
       0.045003504 -0.28004578 -0.03727612 -0.005824704
0003a0 0f da 52 3e 66 5d f8 3d aa 8a 41 be 8a 4a 69 bc
       0.20590995 0.12127189 -0.18900552 -0.014238963
0003b0 ff 70 56 be 5a bf a1 3d fc 88 dc 3c 03 5a f0 3e
       -0.20941542 0.078978255 0.026920788 0.46943673
0003c0 42 da 7c 3d bf f5 96 3d d5 41 92 bd 55 f6 03 3e
       0.061731584 0.07371091 -0.07141463 0.12886937
0003d0 24 f8 0a 3d d5 65 cc bd 17 1b 2a 3e b8 cd da 3d
       0.03392805 -0.099803604 0.16611896 0.10683769
0003e0 52 a6 e4 3d da a5 9b be 4d 69 61 be 05 8c e9 bd
       0.111645356 -0.30399972 -0.22012825 -0.1140366
0003f0 71 5c 71 3e 03 ab 11 be 0c 0f 87 bc 5e ce 93 bd
       0.2357042 -0.14225392 -0.016486667 -0.07217096

fc2.bias f4 [32]
000000 8e 6e 6e 3e b6 a9 b2 bd f3 d5 0c 3d 95 f0 1c bc
       0.23284361 -0.08723776 0.034383725 -0.009578844
000010 20 9f b7 3c fe 4e be 3d ba 4a 76 3d 2a 11 a1 3d
       0.022414744 0.0929241 0.06012986 0.07864602
000020 28 41 94 3e ce d2 b5 bd c2 fe 03 3d ee a7 96 be
       0.2895596 -0.088780984 0.032225378 -0.29424995
000030 0e 5e fb bd be fb 99 bd 1c f8 db 3c b9 d1 42 3d
       -0.12273799 -0.07518719 0.026851706 0.04756329
000040 3b a8 bd 3d 29 3e 8f bd cc a7 2c 3e 89 20 b8 3d
       0.09260603 -0.06994278 0.16860884 0.089905806
000050 e7 bc cb 3d 32 a1 3d 3e e3 5c 0b 3e 86 ad 55 3d
       0.0994814 0.18518522 0.13609652 0.052167438
000060 02 4f 86 ba 7d 85 e7 bc 44 c1 49 3d 49 79 d1 bc
       -0.0010246935 -0.028261894 0.049256578 -0.025570529
000070 02 21 b2 3e ae f0 cb bc da 83 7b 3d a9 75 59 bd
       0.34790808 -0.024895038 0.06140504 -0.053090725

fc3.weight f4 [4, 32]
000000 17 a6 83 3d 23 31 7d be 90 41 fb be f6 20 60 3d
       0.064281635 -0.24725775 -0.49073458 0.054718934
000010 3f c2 2a be bc 8a 30 3d f6 08 8e bc cb 2b 92 be
       -0.16675662 0.043101057 -0.017338257 -0.28549036
000020 84 75 1f be 0a 5d 18 be 44 f9 6e bd 94 89 02 bf
       -0.15572172 -0.14879242 -0.058343187 -0.5099118
000030 48 6c 27 bd f9 6a 94 3e 49 57 80 bd 49 d1 23 3e
       -0.04087475 0.28987864 -0.06266648 0.15997805
000040 54 33 e9 3d bf 15 18 be ca 34 64 3e 40 e7 7b bc
       0.11386743 -0.14852045 0.22285762 -0.0153749585
000050 bf 13 7f bb ff a4 2b bf 0d 26 13 3d 2b 57 4e bd
       -0.0038921682 -0.6704864 0.03592496 -0.0503761
000060 8c aa 1a 3e fc 53 92 be 42 4a 49 3d 71 70 95 bd
       0.15104121 -0.285797 0.049143083 -0.07296837
000070 61 2a 04 3f cb c6 c6 bd 46 4f af bc 1c df ab 3e
       0.51627165 -0.097058855 -0.021400105 0.33568656
000080 88 7c 64 3e 2c 01 02 3f ee 46 06 be 78 51 f3 3c
       0.2231313 0.5078304 -0.13112995 0.029701933
000090 e2 8f f7 bd b0 c8 03 bf e8 bf 9e 3b 69 8b fe 3d
       -0.1208799 -0.514781 0.0048446544 0.12428934
0000a0 0d d4 9a 3e 68 fc c1 be 19 43 95 be d9 37 f3 3c
       0.30239907 -0.37887883 -0.29152754 0.029689716
0000b0 62 98 1d bf 81 3e a4 be e5 fa df 3d c3 90 41 3e
       -0.6156064 -0.32078937 0.10936526 0.18902878
0000c0 f5 c7 cc 3e 7f 0a 00 be 63 50 76 be b4 00 5a 3e
       0.39996305 -0.12504004 -0.24054103 0.2128933
0000d0 13 e1 44 be cd 5d 5b 3c 1f ac 0a 3f d3 f5 68 3d
       -0.19226484 0.013389063 0.54168886 0.05687506
0000e0 8d 60 b0 3c 8f 30 b6 3c a4 23 28 3e 97 9f d4 be
       0.021530414 0.022239951 0.16419846 -0.41528007
0000f0 1c c5 28 be d3 39 d5 3e 94 49 27 3f 0e a4 bd be
       -0.16481441 0.4164568 0.65346646 -0.37039226
000100 2a 20 ae 3d e4 a8 73 be 9e 5f f2 3d 4a 7f 0b 3e
       0.085022286 -0.23794895 0.11834644 0.13622776
000110 2b fa 84 bd 00 1b 99 3d 19 c1 43 3d 73 34 f8 bb
       -0.06493028 0.07475853 0.047791574 -0.007574612
000120 52 19 0f 3e cd e5 07 bf e4 d7 08 3e 2a 86 31 3d
       0.13974503 -0.53085023 0.13363606 0.04334084
000130 d9 ad 34 be 28 d8 de 3e 12 2d c9 bb c7 25 c2 3d
       -0.17644443 0.4352429 -0.006139406 0.09479862
000140 8a 8d ff bd 75 ec c2 bd df 07 58 be 33 48 c3 3e
       -0.12478168 -0.09517757 -0.21096753 0.3814102
000150 79 d8 3b 3c 9a cf c3 bc fa fb 03 be f9 53 81 3b
       0.011465185 -0.023902703 -0.1288909 0.003946778
000160 63 3c 71 3e 69 d3 35 bb 0a a3 93 be 03 79 0d bf
       0.23558192 -0.0027744418 -0.28835326 -0.55262774
000170 3d 0b 74 3d 29 03 53 be 54 a3 8e be c3 f5 0b bf
       0.05958103 -0.20606674 -0.27858984 -0.5467188
000180 b8 39 ef 3d 82 d9 bc 3c 31 46 94 bd 7f fa d0 3e
       0.11680931 0.023052935 -0.072399504 0.40816113
000190 68 bd dc 3e 3c af 60 3f 38 ce 29 bf 52 0c e2 3e
       0.43113256 0.87767386 -0.6633029 0.44150025
0001a0 c6 75 66 be 28 4d 78 3e 82 fc 15 be 94 3a 5e 3f
       -0.22505865 0.24248183 -0.14647105 0.86808133
0001b0 88 cf 16 3f ba 68 70 3d 7f 07 62 be 89 ea bb bb
       0.5891042 0.058693625 -0.22073172 -0.005734746
0001c0 ed b5 2a bf 91 b7 a8 3e 80 89 26 be 4c b2 06 be
       -0.66683847 0.3295255 -0.1626339 -0.13153952
0001d0 6c e7 f3 be be a9 a8 be 34 29 f9 3d 1f 19 b8 3e
       -0.47637498 -0.32942003 0.12166062 0.35956666
0001e0 f7 64 9b be 5b 04 23 bf bb b1 64 3e 7c 50 45 3f
       -0.30350468 -0.6367852 0.22333424 0.77075934
0001f0 96 7b 46 3f 3b fe 8f 3e 8f b3 91 be 03 f9 32 3f
       0.7753233 0.2812365 -0.28457305 0.6991121

fc3.bias f4 [4]
000000 51 49 3c 3b 09 12 55 bd 4b b5 66 bd 07 a9 99 be
       0.0028730223 -0.052019153 -0.05632524 -0.3001177
