tennis_checkpoint_critic_05score.pth (torch_old, 22507 bytes, 5 tensors)

fcs1.weight f4 [64, 48]
000000 fa 59 75 bc 40 ed 17 3c c1 64 b8 3c 1b 8d 3e bb
       -0.014975065 0.009272873 0.02250898 -0.0029075805
000010 6b ba 81 3c 0e 8f ff bc c1 64 b8 3c 1b 8d 3e bb
       0.015835961 -0.031196143 0.02250898 -0.0029075805
000020 5b 40 0a bc a5 68 52 3c ee 62 d7 bb 74 fa f2 3c
       -0.008438195 0.012842332 -0.0065730726 0.029660441
000030 ac e5 9c 3c c0 68 bc bc ee 62 d7 bb 74 fa f2 3c
       0.019152485 -0.022999167 -0.0065730726 0.029660441
000040 07 5b f2 b9 3a 68 2d 3c 94 b9 e3 bb fe fd 14 bd
       -0.00046225658 0.010583932 -0.006949613 -0.03637504
000050 c0 18 40 3c 48 2c 49 bc 94 b9 e3 bb fe fd 14 bd
       0.011724651 -0.012278624 -0.006949613 -0.03637504
000060 06 cc 22 3d 23 e1 2a 3b a2 b0 89 bc 07 57 ed bc
       0.039745353 0.0026074133 -0.016807858 -0.028972162
000070 6b ba 81 bc 0e 8f ff bc a2 b0 89 bc 07 57 ed bc
       -0.015835961 -0.031196143 -0.016807858 -0.028972162
000080 3f 10 21 3d 01 ed f6 ba b0 71 75 3c 59 5d 08 bd
       0.039322134 -0.0018838943 0.0149807185 -0.03329215
000090 ac e5 9c bc c0 68 bc bc b0 71 75 3c 59 5d 08 bd
       -0.019152485 -0.022999167 0.0149807185 -0.03329215
0000a0 d6 e9 0b 3d 75 c9 f9 ba bc b1 5a b9 cd a4 0c 3d
       0.03415855 -0.0019057231 -0.00020856311 0.034336854
0000b0 c0 18 40 bc 48 2c 49 bc bc b1 5a b9 cd a4 0c 3d
       -0.011724651 -0.012278624 -0.00020856311 0.034336854
0000c0 51 09 7a bb 48 10 ed ba 61 6d 48 39 03 6f ca 3a
       -0.0038152526 -0.0018086517 0.00019114233 0.0015444461
0000d0 21 02 04 bd 9d 8b 21 3d 42 2b 80 ba 03 6f ca 3a
       -0.032228593 0.039439786 -0.0009778517 0.0015444461
0000e0 7d 3c ad bc 04 bc 83 3a cf 3e b0 39 34 49 b1 bb
       -0.021147007 0.001005054 0.00033616132 -0.005410338
0000f0 b2 71 37 bd 39 5e 14 bd 42 13 98 ba 34 49 b1 bb
       -0.044786163 -0.03622267 -0.0011602419 -0.005410338
000100 fd 3f 24 bd 44 3d 29 bb f7 a8 a7 bb bb 1c e8 bb
       -0.040100086 -0.002582387 -0.0051165777 -0.007083503
000110 a8 e4 7d bc 9b 3d 4a be 31 d1 70 bb bb 1c e8 bb
       -0.01549641 -0.19750063 -0.0036745782 -0.007083503
000120 2f 8f aa bc 78 6e ea 3d ac 4b dd 3a 69 fe 03 bb
       -0.020820228 0.114468515 0.0016883514 -0.0020140654
000130 a1 44 04 3d 9d 8b 21 3d 1a 40 11 3b 69 fe 03 bb
       0.032292012 0.039439786 0.0022163452 -0.0020140654
000140 a6 02 66 bd ce b7 f6 3d 35 0b 1f bb 5b 7e 74 3c
       -0.05615487 0.12046777 -0.0024268155 0.014922704
000150 e3 37 37 3d 39 5e 14 bd d0 b9 58 bb 5b 7e 74 3c
       0.044731032 -0.03622267 -0.0033069737 0.014922704
000160 19 45 c0 bd 22 93 fa 3d f1 0c 69 bb 8a 04 98 3d
       -0.09388179 0.122350946 -0.0035560692 0.07422741
000170 28 37 7c 3c 9b 3d 4a be 19 65 48 bb 8a 04 98 3d
       0.01539401 -0.19750063 -0.0030577837 0.07422741
000180 9f 38 7f bb 7f 8b 54 3c d6 fd 8c ba fd 73 16 3c
       -0.003894366 0.012972712 -0.0010756801 0.009182927
000190 2e 3a 61 3c d4 2a 5b bd d6 fd 8c ba fd 73 16 3c
       0.013746781 -0.05350764 -0.0010756801 0.009182927
0001a0 43 85 30 3c 6b ba 4d 3c dc 26 05 3c e9 72 b1 bc
       0.01077396 0.012556653 0.008126941 -0.021661239
0001b0 64 2a d0 3c 35 74 95 bd dc 26 05 3c e9 72 b1 bc
       0.025410838 -0.07297555 0.008126941 -0.021661239
0001c0 96 b4 6d 3c dd eb 91 3c 65 85 60 bc 8f ee f2 3b
       0.014508387 0.017812664 -0.013703679 0.0074136923
0001d0 3d b1 a3 bc 6d 42 14 bd 65 85 60 bc 8f ee f2 3b
       -0.019981975 -0.03619616 -0.013703679 0.0074136923
0001e0 5f 9e 29 bc 9b c6 af 3c fd 41 60 3b ec b0 32 3d
       -0.0103527 0.021457007 0.003421902 0.043625757
0001f0 2e 3a 61 bc d4 2a 5b bd fd 41 60 3b ec b0 32 3d
       -0.013746781 -0.05350764 0.003421902 0.043625757
000200 de 3b 06 bc ce 40 12 3d 5d 7a 2c bb 69 4c 70 3d
       -0.008192984 0.035706334 -0.0026318051 0.05866662
000210 64 2a d0 bc 35 74 95 bd 5d 7a 2c bb 69 4c 70 3d
       -0.025410838 -0.07297555 -0.0026318051 0.05866662
000220 85 63 29 3c 75 88 15 3d 22 dd ad 3c 12 0b f4 bd
       0.010338669 0.03650709 0.021223608 -0.11916174
000230 3d b1 a3 3c 6d 42 14 bd 22 dd ad 3c 12 0b f4 bd
       0.019981975 -0.03619616 0.021223608 -0.11916174
000240 73 09 4e 3d e9 c4 6d bd 85 d9 0f bb 1e 42 df 3c
       0.05030198 -0.058049116 -0.002194972 0.027253207
000250 6a 85 cb bb b4 41 6b bc 85 d9 0f bb 1e 42 df 3c
       -0.0062109726 -0.014358927 -0.002194972 0.027253207
000260 20 ab 87 3d 27 59 72 bd f6 69 26 3c c2 6f 9b 3d
       0.066244364 -0.059167054 0.010157099 0.075896755
000270 9a 9e be bc 16 7f 12 bd f6 69 26 3c c2 6f 9b 3d
       -0.023268986 -0.03576573 0.010157099 0.075896755
000280 e5 73 c3 3d 5c 23 40 bd 9f fc 29 3c 40 b5 4d 3d
       0.095435895 -0.04690872 0.010375171 0.05022168
000290 01 00 72 bd 7d bb 05 bd 9f fc 29 3c 40 b5 4d 3d
       -0.059082035 -0.032649506 0.010375171 0.05022168
0002a0 65 af e3 bb 81 0f 47 3c e2 13 b5 b9 1e 12 55 bc
       -0.006948399 0.0121496925 -0.00034537824 -0.013004808
0002b0 6a 85 cb 3b b4 41 6b bc e2 13 b5 b9 1e 12 55 bc
       0.0062109726 -0.014358927 -0.00034537824 -0.013004808
0002c0 d2 c3 74 bc 45 cc 17 3c d9 9a 27 ba 88 0a fe ba
       -0.014939265 0.00926501 -0.00063936185 -0.0019381801
0002d0 9a 9e be 3c 16 7f 12 bd d9 9a 27 ba 88 0a fe ba
       0.023268986 -0.03576573 -0.00063936185 -0.0019381801
0002e0 21 6c 80 bb 1e 90 7a 3c a4 c4 2e 3a 7e 5e 5e 3c
       -0.00391914 0.015293149 0.0006666875 0.013572333
0002f0 01 00 72 3d 7d bb 05 bd a4 c4 2e 3a 7e 5e 5e 3c
       0.059082035 -0.032649506 0.0006666875 0.013572333
000300 cc 7c 00 3c d8 e8 10 3a 1f 6b fd b9 23 93 55 ba
       0.007842254 0.00055278605 -0.00048335732 -0.000814723
000310 7a 29 d4 ba bd ab 8f bb 1f 6b fd b9 23 93 55 ba
       -0.0016186677 -0.0043844865 -0.00048335732 -0.000814723
000320 fc 37 24 3c 49 c8 af 39 0b a5 64 3a 72 6a f7 ba
       0.010023113 0.00033527825 0.0008722103 -0.0018876328
000330 6e 7a 29 bb 20 42 68 bb 0b a5 64 3a 72 6a f7 ba
       -0.0025860327 -0.0035439804 0.0008722103 -0.0018876328
000340 d8 34 48 3c e0 23 c5 38 62 92 fa 39 93 36 20 bb
       0.01221963 9.400374e-05 0.0004779278 -0.0024446591
000350 f0 d0 53 bb 0b 19 48 bb 62 92 fa 39 93 36 20 bb
       -0.0032320581 -0.0030532505 0.0004779278 -0.0024446591
000360 fb 28 33 3c ad 92 f5 39 8f 7e 3f bb f8 f4 05 39
       0.0109350635 0.00046839323 -0.0029219722 0.00012775126
000370 7a 29 d4 3a bd ab 8f bb 8f 7e 3f bb f8 f4 05 39
       0.0016186677 -0.0043844865 -0.0029219722 0.00012775126
000380 c3 f9 35 3c 97 a3 2a 39 cb 7c 2a bb 08 05 f2 b9
       0.011106911 0.00016273405 -0.0026014324 -0.00046161585
000390 6e 7a 29 3b 20 42 68 bb cb 7c 2a bb 08 05 f2 b9
       0.0025860327 -0.0035439804 -0.0026014324 -0.00046161585
0003a0 3a 63 37 3c 2d b4 2a b9 1b 45 e2 3a 00 9a f5 ba
       0.011193091 -0.00016279584 0.0017263027 -0.0018737912
0003b0 f0 d0 53 3b 0b 19 48 bb 1b 45 e2 3a 00 9a f5 ba
       0.0032320581 -0.0030532505 0.0017263027 -0.0018737912
0003c0 70 b6 88 bc c8 f9 0d 3c a2 5e 28 3b 56 6d 8e ba
       -0.016688555 0.0086655095 0.0025691171 -0.0010866325
0003d0 34 7d 0f be ea 13 1a 3c bc 31 8f bb 4a 6d 8e ba
       -0.14012605 0.009404162 -0.0043699425 -0.0010866311
0003e0 2d 5e 10 3c 91 f2 3f 3c 00 f0 49 ba 09 88 0e ba
       0.008811516 0.011715547 -0.0007703304 -0.0005437141
0003f0 51 09 24 be 84 cb 81 bc db 81 37 ba c9 87 0e ba
       -0.16019179 -0.015844114 -0.0007000246 -0.00054371037

fcs1.bias f4 [64]
000000 d4 34 b0 bb c8 28 db 37 b3 15 a2 bc 07 8d 41 bb
       -0.0053773914 2.6125825e-05 -0.019785738 -0.0029533522
000010 ed 8e 6a ba 09 bf aa bc e1 d4 37 bb d7 2c d6 bc
       -0.0008947689 -0.020843046 -0.002805047 -0.026144428
000020 f3 5b 21 b6 ac 40 ed b9 08 35 97 bc 28 0f 3b bb
       -2.404439e-06 -0.00045252347 -0.018457904 -0.002854297
000030 aa 08 1b 3a 82 8b 81 bc 92 aa 00 bd 46 3d 56 bb
       0.0005914072 -0.015813593 -0.03141267 -0.003269033
000040 93 dc 9e bb fc c7 5a ba 59 44 8a bc ae f9 82 ba
       -0.004848072 -0.000834584 -0.016878294 -0.0009992623
000050 d1 22 8d 3c b5 fb 38 bb 77 5d 58 b9 19 30 63 bb
       0.017228516 -0.00282262 -0.00020634184 -0.003466612
000060 f6 7b 00 3a 07 86 43 bc ac 26 af 39 fa 92 13 bd
       0.0004901284 -0.01193381 0.00033407414 -0.03602884
000070 d2 d7 32 3a 37 de 1a 3d 0e a6 f4 3d 62 10 87 bb
       0.0006822321 0.037809577 0.11945735 -0.004121826
000080 f1 38 3d 3a c1 0d 18 3b 8e 51 91 bb d3 c8 1e 3e
       0.0007218263 0.0023201557 -0.004434771 0.15506296
000090 75 99 97 bb 31 5e 0d bb e8 80 38 3d 7f b3 36 ba
       -0.004626448 -0.0021571035 0.04504481 -0.0006969496
0000a0 44 01 2e bc 65 6c 49 bc f9 64 70 bd 8e ab f5 ba
       -0.010620419 -0.01229391 -0.058690045 -0.0018743144
0000b0 b2 6a 13 3b 9e 25 73 b9 52 f0 84 bb b8 08 33 b9
       0.0022494015 -0.000231883 -0.0040569687 -0.00017074018
0000c0 bd a5 8a bb e4 45 56 3b 82 f8 ca 3b 38 c1 b4 ba
       -0.0042311833 0.0032695467 0.006194175 -0.0013790494
0000d0 8e 2c a7 ba 6b 6c 8f 3b 21 bc 70 bb f9 94 41 bb
       -0.0012754367 0.004376938 -0.0036733227 -0.0029538258
0000e0 44 05 e3 bc 17 a1 d9 bc 82 a2 a2 bb 64 0e 36 bc
       -0.027712472 -0.026566071 -0.00496322 -0.011111829
0000f0 94 55 3a 3a 50 51 4c bd 77 2e 1d 3b 1f 57 29 bb
       0.0007108089 -0.049882233 0.0023983994 -0.0025839282

fc2.weight f4 [32, 68]
000000 38 70 6b bb 04 5f 8a bd 6d 19 67 bd 26 67 a3 3b
       -0.0035925042 -0.06756404 -0.056420732 0.0049866615
000010 2f 85 aa ba ff a9 a7 3c 71 f8 99 3a 34 c6 a7 bd
       -0.0013009663 0.020466803 0.0011747015 -0.08192101
000020 4a 7a da b8 0c 2a 5f b8 f3 b4 e1 bc 35 2c 93 3b
       -0.00010417828 -5.3206502e-05 -0.027552104 0.004491354
000030 7d bf 04 3b bd c4 70 bd ae 85 d3 3a c9 0f 44 be
       0.0020255737 -0.058781374 0.0016137862 -0.19146647
000040 f7 af f7 3c f3 50 05 bb cd 8d 79 bd 9b d2 95 ba
       0.030235274 -0.002034244 -0.060926247 -0.0011430563
000050 18 63 6d bd 6d ff 80 3c e6 70 a4 ba e7 52 12 3c
       -0.05795583 0.015746797 -0.0012545853 0.008930898
000060 cb 21 1b bd 68 2f 9a 3d 72 ce fb bd 98 30 e3 bd
       -0.037874024 0.07528573 -0.12295236 -0.11093253
000070 94 88 11 bd 2b 95 16 3e d4 cd bc bc 36 d1 61 bb
       -0.03553064 0.1470534 -0.023047365 -0.0034456975
000080 eb 37 17 b8 b4 1c bc bd d4 cf 12 bc 09 ed 2a 3c
       -3.6053283e-05 -0.09185162 -0.008960683 0.01043249
000090 1f 29 ce bb cf cd 25 bc 78 75 de 3c 40 0e 99 36
       -0.006291523 -0.010119869 0.027155623 4.5614142e-06
0000a0 b4 3b 00 3d f6 95 79 bc 2d ab b6 3c 62 6a 9a bc
       0.031306937 -0.015233507 0.02229842 -0.018849555
0000b0 1f 2b fe bc b2 59 62 bc f0 c4 d6 bc 52 cf fa bb
       -0.031026421 -0.01381533 -0.026216954 -0.007654109
0000c0 5a 8d 86 3d e9 e1 ec bc a1 6f ba 3c 8e a5 02 bb
       0.065699294 -0.028916316 0.022758307 -0.0019935104
0000d0 c9 ee 23 3a 5b ae 9d 3c 23 c2 38 bc 31 1d b1 bb
       0.00062535383 0.019248178 -0.011276755 -0.005405091
0000e0 d3 4e 56 3c cd f7 cc bc 19 ff 27 bd 23 12 2e 3c
       0.013080317 -0.025020504 -0.041014764 0.010624441
0000f0 ee 50 53 bd 8e 02 eb bb 34 c9 bc bc 9c 98 bd bc
       -0.051590852 -0.0071719354 -0.02304516 -0.023144059
000100 1c 33 7a 3b 46 f1 77 3c 63 67 e7 3b d0 51 59 bb
       0.0038177436 0.015133208 0.007061885 -0.0033160336
000110 29 7d e0 14 7e aa b5 aa a9 a6 75 84 44 b3 88 0e
       2.2667587e-26 -3.2270362e-13 -2.8876138e-36 3.3699215e-30
000120 d9 b1 bf 80 c8 8f b4 b4 0c ea 89 80 eb a8 a3 14
       -1.760438e-38 -3.3632227e-07 -1.2665423e-38 1.652542e-26
000130 98 f5 69 00 f0 fb 25 80 cc 7b 9d 9b 2c 23 f2 80
       9.73083e-39 -3.488292e-39 -2.6053473e-22 -2.2236807e-38
000140 9c 06 a3 03 e6 99 e3 80 9d a2 7c b1 41 3c 43 ac
       9.581796e-37 -2.0901866e-38 -3.6763261e-09 -2.7744614e-12
000150 3a 4b b3 21 f0 0c 58 00 6a 2e 56 86 5d c6 a2 80
       1.2149424e-18 8.086165e-39 -4.0283026e-35 -1.494851e-38
000160 aa c4 5b 8a c2 11 13 80 60 c5 cd 00 ed c1 44 00
       -1.0581455e-32 -1.751245e-39 1.8897082e-38 6.314381e-39
000170 2a 0c c6 86 1f 13 fc ae ff d4 dc 17 17 91 64 00
       -7.4497196e-35 -1.146303e-10 1.4270935e-24 9.235598e-39
000180 7d 44 75 9d 3d f7 78 b0 2b de 83 ac 75 d7 51 00
       -3.2460888e-21 -9.057322e-10 -3.7479095e-12 7.515967e-39
000190 26 81 06 18 7c 69 bb 9c 0e da dc 85 c8 10 88 ac
       1.7384297e-24 -1.2401889e-21 -2.0768801e-35 -3.8672156e-12
0001a0 15 be 60 80 4c fa c7 80 d4 23 86 a5 9e 6b e0 00
       -8.884396e-39 -1.8365053e-38 -2.3269573e-16 2.0609757e-38
0001b0 83 49 d9 0c b2 f7 1e 95 b2 3d 64 b2 e8 aa 25 0a
       3.3478387e-31 -3.2103243e-26 -1.3285375e-08 7.976605e-33
0001c0 b6 41 81 00 74 26 89 00 6e 99 d5 b0 cc 93 13 80
       1.1870352e-38 1.2595257e-38 -1.5541397e-09 -1.797894e-39
0001d0 05 dd 56 b4 c3 24 b1 82 28 c4 b9 83 01 61 17 00
       -2.001071e-07 -2.6028913e-37 -1.0918358e-36 2.147015e-39
0001e0 10 18 45 00 56 69 9d 80 77 4c 1f 80 58 04 a9 a9
       6.345281e-39 -1.445596e-38 -2.874331e-39 -7.505861e-14
0001f0 29 c0 f9 a9 77 24 19 ab 99 a8 9f 98 3c ce 31 ab
       -1.1091156e-13 -5.4407124e-13 -4.1270777e-24 -6.316924e-13
000200 07 31 c6 99 8a 16 5f ab 99 fc 51 00 45 18 a6 80
       -2.0492522e-23 -7.9256794e-13 7.52929e-39 -1.5253399e-38
000210 ee 38 ca ac 37 60 8b a8 e3 0f fb 28 85 d8 1e ac
       -5.7475058e-12 -1.5473827e-14 2.7873488e-14 -2.2573343e-12
000220 c1 94 4d 3c 2a e6 a9 3c fd ad f7 3c 45 1f da 3c
       0.012547673 0.020739634 0.030234331 0.026626239
000230 69 a4 98 3a b9 a2 a8 3c 27 26 0d bc a9 39 5a 3c
       0.0011645678 0.020585405 -0.008615053 0.013319411
000240 e1 9d e6 b5 d9 19 cc 39 69 19 f8 bc fc de 7d 3b
       -1.7182284e-06 0.0003892917 -0.030285554 0.0038737645
000250 40 e2 44 3c 98 3e 06 bd 81 12 30 bd 74 2b a6 be
       0.012016833 -0.032774538 -0.042986397 -0.32455027
000260 e8 2c f8 3c 15 26 8c ba 25 51 52 bc d6 ad b5 ba
       0.03029485 -0.0010692502 -0.012836729 -0.0013861011
000270 5c 23 57 bd 27 f6 d5 bb c5 92 f5 ba b5 2b ac ba
       -0.052523956 -0.006529588 -0.0018735757 -0.0013135584
000280 6e 76 9a bc ec dd 26 bd 8b 52 2c bc 8e eb 19 be
       -0.0188553 -0.040738985 -0.010517727 -0.15031263
000290 50 c9 23 bb 43 63 bf 3d fa d9 5e bc 37 d4 92 3c
       -0.0024991818 0.093451045 -0.013601774 0.017923458
0002a0 d5 7a 97 3c b3 55 a3 3c 84 37 0c 3d 29 91 aa 3d
       0.018491188 0.019938326 0.03423263 0.08328468
0002b0 26 c6 03 3c e0 1e 0e 3c 02 66 e5 bb 4d f7 13 3b
       0.008042848 0.008674353 -0.0070006857 0.0022577823
0002c0 16 33 4b bc 5f 03 ee 3c 40 9f 1d 3c 0a c9 24 3c
       -0.012402317 0.029054342 0.009620488 0.010057697
0002d0 ea 88 54 3b 0f 4c 7a 3c 2d 41 89 bc 0f 24 da 3c
       0.003243024 0.015276923 -0.016754711 0.026628522
0002e0 a3 07 a2 3c 54 15 94 3c 37 15 6a bd c3 15 cf 3a
       0.019779032 0.018076576 -0.05714914 0.0015799332
0002f0 ba cf 16 ba f8 ae 23 3c 1a de ce 3c 16 bf 9e 3c
       -0.00057529996 0.009990446 0.02525239 0.019378226
000300 5a 86 d2 bd 8e aa a0 3d 31 35 02 bd 43 73 f5 bc
       -0.10279532 0.07845031 -0.03178901 -0.029962188
000310 42 f2 c2 bc 86 19 1b bd 83 f6 be bb 5b 7a e9 3b
       -0.023797158 -0.037866138 -0.0058277263 0.0071251816
000320 c6 77 cc 3a 8a a7 d7 39 6b e9 b3 bb d3 08 a9 3a
       0.001559966 0.00041132822 -0.005490472 0.0012896307
000330 5e 73 aa 36 07 c2 c8 b6 00 0b 0b b6 10 26 0d 27
       5.0798253e-06 -5.9830522e-06 -2.0719017e-06 1.9588315e-15
000340 3b c0 6b 80 59 36 5a b9 7e 53 85 80 34 40 6d b7
       -9.895357e-39 -0.00020810346 -1.2244072e-38 -1.4141249e-05
000350 18 07 27 00 53 c3 dd 00 02 03 51 b7 3a 6b 28 80
       3.584129e-39 2.0365714e-38 -1.2458071e-05 -3.711885e-39
000360 18 86 a2 33 50 47 a3 b5 94 96 9f b7 64 37 8f b7
       7.5681044e-08 -1.2165201e-06 -1.9024395e-05 -1.7072722e-05
000370 6b 61 1c b5 c6 71 38 35 af 49 2f b1 7d c0 2c 34
       -5.825629e-07 6.8710904e-07 -2.5507736e-09 1.6088775e-07
000380 68 bc 32 b5 44 f3 b5 00 9a 12 39 80 66 3b 07 80
       -6.6584334e-07 1.6709492e-38 -5.241296e-39 -6.64157e-40
000390 54 a8 24 b6 10 bc f4 b7 41 a9 33 b2 f4 a0 b8 b3
       -2.4535884e-06 -2.917464e-05 -1.0457655e-08 -8.597445e-08
0003a0 88 24 d2 b2 54 bf 08 b8 15 86 ae b7 5b e7 a8 b2
       -2.446383e-08 -3.2603115e-05 -2.0804853e-05 -1.9662982e-08
0003b0 36 94 2d b6 fd 88 5b b7 61 b1 8f 34 82 ae 81 b6
       -2.586528e-06 -1.3085312e-05 2.6764886e-07 -3.864815e-06
0003c0 94 24 57 00 7d 61 03 b5 03 f4 ac 33 0c 29 c2 00
       8.00281e-39 -4.8943167e-07 8.0537596e-08 1.7830811e-38
0003d0 a8 77 0c b7 40 2e 0f 32 02 e3 5c b7 1c bc 4c 35
       -8.37251e-06 8.3342115e-09 -1.3165876e-05 7.626966e-07
0003e0 6b 5f ac 33 25 c4 4e 36 15 08 51 b6 c8 3f 4b b5
       8.0267306e-08 3.0810563e-06 -3.1148131e-06 -7.5716207e-07
0003f0 7f 0c 37 b9 71 9f 38 b6 1a b0 49 b4 80 41 09 32
       -0.00017456895 -2.7510944e-06 -1.8783649e-07 7.9893425e-09

fc2.bias f4 [32]
000000 fb 97 5c bd 6c 21 09 ad 3f 95 95 3d fc f1 88 b7
       -0.053855877 -7.7949695e-12 0.07303857 -1.6325146e-05
000010 e3 98 1e 00 b5 b5 18 be a6 a1 4c b9 ff 85 40 b2
       2.80991e-39 -0.14913066 -0.00019515175 -1.1206338e-08
000020 6a 03 c5 3d 0e 2f 53 bb a3 b9 d3 3b ae f8 2f 3c
       0.09619792 -0.0032224092 0.0064613386 0.010740442
000030 b6 a5 fc bd d3 a6 3c ab d8 f6 04 3d 5b 17 bb 3d
       -0.12336294 -6.702253e-13 0.03246197 0.09135314
000040 58 64 c2 3d 13 12 2e 3d b0 06 b8 b8 48 fd 32 b7
       0.09491795 0.042497706 -8.775049e-05 -1.0668598e-05
000050 e7 e6 85 3d e7 40 14 bd 6c 08 12 a6 8f 69 1c be
       0.06538182 -0.03619471 -5.066534e-16 -0.15274642
000060 e1 3d 12 3d 96 24 9e 8f 08 85 1c 3d b3 9e 1e 9e
       0.035703544 -1.5594095e-29 0.038212806 -8.3972686e-21
000070 f9 ac 12 b7 79 16 46 b8 a9 b5 9e 3d cf 4d 20 b9
       -8.7425515e-06 -4.7227808e-05 0.07749493 -0.00015287775

fc3.weight f4 [1, 32]
000000 8f 82 a5 be db 18 8d 39 b2 5b a1 be 6c ed 99 b8
       -0.3232617 0.00026912134 -0.3151527 -7.339832e-05
000010 9c 09 b8 b6 91 64 e1 be f7 3f 6c be e1 57 3d bb
       -5.484746e-06 -0.4402204 -0.23071276 -0.0028891491
000020 79 db 80 3e 89 5a cf ba 39 9c 53 be 44 f4 8c be
       0.25167444 -0.0015819828 -0.20665063 -0.2753011
000030 52 0d c0 be 51 a1 60 b9 89 c6 29 be 2f 16 9e 3e
       -0.37510163 -0.000214224 -0.16579641 0.308763
000040 03 39 db 3e 4c f6 53 3e 03 ef d7 38 c0 3b df 38
       0.42816934 0.20699424 0.00010296518 0.00010644598
000050 e8 1f bd be 66 27 dc be da b0 a1 38 f7 dc 01 bf
       -0.36938405 -0.4299881 7.7100194e-05 -0.5072779
000060 9a 98 6e be b4 ce 7d b6 d8 c5 97 be c1 d4 11 ba
       -0.233004 -3.7820255e-06 -0.2964313 -0.0005563014
000070 34 72 1e b9 99 0a 27 3b e7 67 1b 3f 24 77 4a 3a
       -0.00015110598 0.0025488494 0.6070542 0.0007723442
