tennis_checkpoint_critic.pth (torch_old, 22507 bytes, 5 tensors)

fcs1.weight f4 [64, 48]
000000 ed 32 0e bc 50 47 07 bd 72 18 27 ba 0a 66 17 bb
       -0.008679134 -0.033026993 -0.0006374187 -0.0023101592
000010 88 d9 2d be 23 e5 21 bb ee 17 27 ba 0a 66 17 bb
       -0.16977513 -0.0024703227 -0.000637411 -0.0023101592
000020 f4 73 81 bb 51 9a 04 bd e9 98 00 bb 95 d2 9a ba
       -0.0039505903 -0.03237373 -0.0019622392 -0.0011812026
000030 38 08 22 be 1d 67 9f bc ed 98 00 bb 95 d2 9a ba
       -0.15823448 -0.019458348 -0.00196224 -0.0011812026
000040 93 7e 48 3c 52 73 f2 bc 52 fc 98 3b 22 3a 92 3c
       0.012237209 -0.029596005 0.004668751 0.017849986
000050 3c c4 eb bd 40 38 5a bb 52 fc 98 3b 22 3a 92 3c
       -0.11512038 -0.0033297688 0.004668751 0.017849986
000060 b5 5b 4e 3b ee 23 83 bb 3f 57 09 3b 20 e7 2f 3b
       0.0031487767 -0.004002086 0.0020956544 0.0026840642
000070 88 d9 2d 3e 23 e5 21 bb 9d 2f 08 39 20 e7 2f 3b
       0.16977513 -0.0024703227 0.00012987708 0.0026840642
000080 11 ce 34 3c 46 6f 7f bb 1b 34 b2 3a 05 06 dc ba
       0.011035458 -0.0038976236 0.0013595851 -0.0016786462
000090 38 08 22 3e 1d 67 9f bc 14 f1 c3 3a 05 06 dc ba
       0.15823448 -0.019458348 0.0014949166 -0.0016786462
0000a0 82 0c 91 bc cc 47 11 ba a6 71 a7 39 f3 3a a5 3a
       -0.01770616 -0.00055420096 0.00031937397 0.0012606069
0000b0 3c c4 eb 3d 40 38 5a bb 8d ae 9f b9 f3 3a a5 3a
       0.11512038 -0.0033297688 -0.00030456894 0.0012606069
0000c0 e3 1b 5b 3c 50 42 d5 bb c6 65 86 3c 2b 31 db 3c
       0.013373348 -0.006508149 0.016405951 0.026756844
0000d0 81 4d d6 3c 67 05 a9 bc c6 65 86 3c 2b 31 db 3c
       0.026160004 -0.020632459 0.016405951 0.026756844
0000e0 f3 2d ff 3b 57 00 24 bb 34 5d 7c bc 9d ac fe 3c
       0.00778746 -0.0025024617 -0.015403081 0.031088168
0000f0 47 16 b7 3c 1b ac 0d bc 34 5d 7c bc 9d ac fe 3c
       0.02234949 -0.00864699 -0.015403081 0.031088168
000100 17 67 16 3c 5a 4d 90 3a 67 65 c8 bb dc 00 97 3c
       0.009179852 0.0011009381 -0.0061156037 0.018433027
000110 40 ad 5b 3b 60 5a b7 3c 67 65 c8 bb dc 00 97 3c
       0.0033520013 0.022381961 -0.0061156037 0.018433027
000120 63 bf 59 3d 50 03 2e bc 41 ca 44 bc 18 ec 12 bd
       0.053161036 -0.010620907 -0.012011112 -0.035869688
000130 81 4d d6 bc 67 05 a9 bc 41 ca 44 bc 18 ec 12 bd
       -0.026160004 -0.020632459 -0.012011112 -0.035869688
000140 76 09 52 3d e6 af 83 bc ce 23 b2 3c a1 10 2e bd
       0.051278554 -0.016075086 0.021745589 -0.042496327
000150 47 16 b7 bc 1b ac 0d bc ce 23 b2 3c a1 10 2e bd
       -0.02234949 -0.00864699 0.021745589 -0.042496327
000160 65 93 29 3d 29 82 ac bc 94 88 e6 3b 8f 95 6f 3c
       0.041400332 -0.021058159 0.0070353243 0.01462306
000170 40 ad 5b bb 60 5a b7 3c 94 88 e6 3b 8f 95 6f 3c
       -0.0033520013 0.022381961 0.0070353243 0.01462306
000180 ec ab 7d 3a a5 c1 b1 b9 40 df 30 3a 67 b9 bc bb
       0.00096768024 -0.00033904347 0.0006747134 -0.0057594064
000190 f1 f5 58 bc 5c fb e4 bb 08 df 30 3a 67 b9 bc bb
       -0.013242231 -0.006987972 0.00067471014 -0.0057594064
0001a0 4b 07 da 3b ce 94 05 b9 fd 97 c6 bb db 77 e4 3b
       0.0066537014 -0.00012739302 -0.006060599 0.0069722957
0001b0 c2 cc 5c bc 82 52 fe bb e8 97 c6 bb db 77 e4 3b
       -0.013476552 -0.0077613005 -0.006060589 0.0069722957
0001c0 75 cd 79 3c 3a 84 b8 3a fc 2a 93 3c 66 66 e4 3b
       0.015246739 0.0014077493 0.017964832 0.0069702147
0001d0 b8 fd 2b bc c8 43 c4 bb fe 2a 93 3c 66 66 e4 3b
       -0.010497503 -0.0059895255 0.017964836 0.0069702147
0001e0 a3 f4 c7 3c a0 46 ae bb 4b 7f 7a bc bd e5 36 3c
       0.024408644 -0.0053184777 -0.015289138 0.011163172
0001f0 f1 f5 58 3c 5c fb e4 bb 9e b0 7a bc bd e5 36 3c
       0.013242231 -0.006987972 -0.015300898 0.011163172
000200 0c a2 e1 3c fc 4e 5a bb 8b b7 4c 3b f8 2c aa 3c
       0.02754309 -0.0033311239 0.003123733 0.020773396
000210 c2 cc 5c 3c 82 52 fe bb 54 e9 4c 3b f8 2c aa 3c
       0.013476552 -0.0077613005 0.0031267004 0.020773396
000220 bd b6 03 3d ff a1 eb ba 9a f3 cc 3b 37 3c 37 3c
       0.032156695 -0.0017977356 0.0062546255 0.01118379
000230 b8 fd 2b 3c c8 43 c4 bb 49 13 cd 3b 37 3c 37 3c
       0.010497503 -0.0059895255 0.0062584025 0.01118379
000240 16 ad de bb ca 2b 5c b9 de 7e 52 bc 4c 95 11 bc
       -0.006795536 -0.00020997148 -0.01284763 -0.008885693
000250 65 f4 2e bb 51 ea ac bb de 7e 52 bc 4c 95 11 bc
       -0.0026695963 -0.005276956 -0.01284763 -0.008885693
000260 56 fa f7 bb c6 31 11 ba 3c b5 45 bb 89 87 24 bc
       -0.007567684 -0.0005538728 -0.0030167839 -0.01004208
000270 74 e3 8b bb 20 c8 16 bc 3c b5 45 bb 89 87 24 bc
       -0.004269058 -0.009202987 -0.0030167839 -0.01004208
000280 e3 25 a1 3b b1 e7 48 39 46 df 83 3c 4e 73 9f 3b
       0.0049178465 0.00019159798 0.016097676 0.0048660403
000290 bd 2b 08 bc 64 d3 6c bc 46 df 83 3c 4e 73 9f 3b
       -0.008311209 -0.014454696 0.016097676 0.0048660403
0002a0 fb b8 13 3d cd a7 1c 3b 93 c7 7e bc 4b 5d d6 3a
       0.036065083 0.0023903728 -0.015550512 0.0016354708
0002b0 65 f4 2e 3b 51 ea ac bb 93 c7 7e bc 4b 5d d6 3a
       0.0026695963 -0.005276956 -0.015550512 0.0016354708
0002c0 87 89 0b 3d 62 dc bc 3a aa be ab bc 7a d7 ce bb
       0.034066703 0.0014408941 -0.02096494 -0.006312308
0002d0 74 e3 8b 3b 20 c8 16 bc aa be ab bc 7a d7 ce bb
       0.004269058 -0.009202987 -0.02096494 -0.006312308
0002e0 69 e6 2b 3d 28 21 8b 3a 87 f9 9c 3c 25 99 96 39
       0.041967783 0.001061474 0.019161953 0.0002872433
0002f0 bd 2b 08 3c 64 d3 6c bc 87 f9 9c 3c 25 99 96 39
       0.008311209 -0.014454696 0.019161953 0.0002872433
000300 58 dc 26 bb 36 3f 64 3c d5 24 68 bc 61 88 ac bc
       -0.0025460925 0.013931086 -0.014168938 -0.021061124
000310 c7 76 d0 3b c6 3c d3 3c d5 24 68 bc 61 88 ac bc
       0.0063618156 0.025785815 -0.014168938 -0.021061124
000320 01 02 6c bb a9 31 3b 3c a7 52 95 bc 79 d5 89 bc
       -0.0036011937 0.011425414 -0.018227888 -0.016825425
000330 32 3d 29 3c a9 dc f6 3c a7 52 95 bc 79 d5 89 bc
       0.0103295315 0.030134516 -0.018227888 -0.016825425
000340 be 9c cd bb 64 8d 0a 3c cd 95 88 bc e9 6a 9e bc
       -0.0062747886 0.008456562 -0.016672993 -0.019338088
000350 23 12 66 3c 0f 4c 06 3d cd 95 88 bc e9 6a 9e bc
       0.01404241 0.03278738 -0.016672993 -0.019338088
000360 01 2a bf 3c ee 33 ec ba 71 15 5d bc 6f 1b 14 bc
       0.023335459 -0.0018020847 -0.013493882 -0.009039744
000370 c7 76 d0 bb c6 3c d3 3c 71 15 5d bc 6f 1b 14 bc
       -0.0063618156 0.025785815 -0.013493882 -0.009039744
000380 7d 2e 5f 3c 2c ce d4 ba 49 fe 38 bc 63 c8 89 3c
       0.0136219235 -0.001623576 -0.011291095 0.016819185
000390 32 3d 29 bc a9 dc f6 3c 49 fe 38 bc 63 c8 89 3c
       -0.0103295315 0.030134516 -0.011291095 0.016819185
0003a0 84 ff ef 3a aa 37 4c 3b 7b e9 eb 3b 91 9c 3d 3d
       0.0018310403 0.0031161108 0.007199464 0.04629189
0003b0 23 12 66 bc 0f 4c 06 3d 7b e9 eb 3b 91 9c 3d 3d
       -0.01404241 0.03278738 0.007199464 0.04629189
0003c0 a9 d0 59 3c b3 cb a4 3b 8b 77 91 bb 9b 47 21 ba
       0.013294377 0.0050291657 -0.0044392995 -0.00061523326
0003d0 32 0d e1 bb ea e4 8b bc 8b 77 91 bb 9b 47 21 ba
       -0.006868028 -0.017076928 -0.0044392995 -0.00061523326
0003e0 6d 28 5e 3c 18 3f ab 3b 70 e2 33 bb d5 fb b6 3b
       0.013559443 0.005226027 -0.00274482 0.00558422
0003f0 e0 12 d8 bb d8 a7 92 bc 70 e2 33 bb d5 fb b6 3b
       -0.006594047 -0.0179023 -0.00274482 0.00558422

fcs1.bias f4 [64]
000000 1c 0f 27 3c 9d df cc ba b8 e6 b1 ba 21 c9 b6 ba
       0.010196473 -0.0015630607 -0.0013572788 -0.0013945439
000010 80 b3 00 3b b8 e4 d7 bb 60 f5 20 bb 24 ad 1d ba
       0.001963824 -0.0065885447 -0.0024560317 -0.00060148747
000020 f5 94 6f 39 ea 32 eb b8 31 f4 de ba b4 d8 22 bb
       0.00022848307 -0.00011215157 -0.001701003 -0.0024848403
000030 b7 2d 18 bb a8 86 a4 3a 22 e9 be bb af a2 ba bc
       -0.0023220608 0.0012552338 -0.0058261314 -0.022782652
000040 06 74 0c bb bc 39 f5 ba 16 1b ff ba 67 aa 10 3c
       -0.002143146 -0.0018709223 -0.0019463028 0.00882969
000050 46 07 57 bb 70 f6 24 bc bf 95 e1 bb 51 1d 12 bb
       -0.0032810732 -0.010068521 -0.006884306 -0.0022295306
000060 63 36 28 ba ac 37 c0 b8 78 5c a1 ba 15 e3 83 ba
       -0.00064167957 -9.165643e-05 -0.0012310883 -0.0010062183
000070 e1 53 50 ba b7 38 df ba eb 41 00 bb 25 52 29 bb
       -0.0007947069 -0.0017030452 -0.001957054 -0.0025836315
000080 45 ef ef bb 1b 0e 90 3a 6a 3e 9f ba a2 4e e7 3c
       -0.0073222243 0.0010990532 -0.0012149338 0.028235737
000090 68 37 4b 39 5c fd 99 ba 28 94 2a 3c 0d bc 8b bb
       0.00019380229 -0.0011748481 0.0104113 -0.0042643608
0000a0 62 4a 4a bb d3 37 e6 ba 1a d3 d4 bb 37 8a 24 bb
       -0.003086709 -0.0017564244 -0.006494892 -0.0025106797
0000b0 73 01 c5 b9 02 b4 45 bd 21 d1 b9 bb a7 2e 46 bb
       -0.00037575848 -0.048267372 -0.005670682 -0.003024021
0000c0 28 52 ed b9 8a 36 0b bb 55 11 21 ba ed f5 42 bb
       -0.00045265374 -0.0021242225 -0.0006144245 -0.0029748634
0000d0 8d 0e 9c 39 6e f2 cc 39 31 95 94 37 df dc 1c 3a
       0.0002976548 0.00039090536 1.7712448e-05 0.000598384
0000e0 be 46 01 3c f6 c4 0a bc 1f d3 01 bb b7 83 77 bb
       0.007890401 -0.008469811 -0.0019809676 -0.0037767717
0000f0 10 c7 e1 38 fa a0 79 3a 3f a4 a1 3a 37 2f 9f bb
       0.00010765914 0.00095225836 0.0012332274 -0.0048579234

fc2.weight f4 [32, 68]
000000 5c e8 52 3c 4c aa cd bc 6a fd 06 bc 21 ee 90 3c
       0.012872782 -0.025105618 -0.00823913 0.017691674
000010 ba 4d 91 bc 11 05 db ba ff da 58 bc e6 69 94 bd
       -0.017737258 -0.0016709884 -0.0132358065 -0.07246761
000020 2e e6 63 3d 9f 5b f1 bb 6f c6 03 3d 29 dd e9 3c
       0.05563944 -0.0073656584 0.032171663 0.02854784
000030 4a dd 71 3a 3e 86 3b 3c df 00 89 bd c0 56 1a be
       0.0009226395 0.01144558 -0.06689619 -0.15072155
000040 b4 9f 8e 3c b0 d2 f7 3a 8e 16 78 37 79 e4 cf 3d
       0.017410137 0.0018907394 1.4787203e-05 0.101509996
000050 26 e9 c7 bc 63 e0 14 be 4f 85 28 bd 36 cc b8 3c
       -0.024403166 -0.14538722 -0.041142758 0.022558313
000060 13 1f a7 3b 18 8b 82 3b b7 f0 cf 3b 68 fc 02 3c
       0.00510014 0.0039838664 0.006345834 0.007994749
000070 f0 26 b4 ba 21 51 25 3c b1 d7 06 3b e1 e5 b2 3c
       -0.0013744514 0.010090143 0.002057534 0.02183813
000080 6d 93 b7 bd 33 13 50 3b 7f 2c 24 bc 0a 01 1e 3e
       -0.08963666 0.0031749725 -0.010020374 0.15430084
000090 34 88 65 3c 47 8d 22 3d 1d 45 d1 3d e6 b9 bc bd
       0.014009524 0.039685514 0.102182604 -0.09215145
0000a0 da f2 ac 3b 77 b6 cd bc 24 0d 60 be 5a a7 b4 bc
       0.0052779736 -0.02511142 -0.21880013 -0.022052456
0000b0 38 e2 97 3c 18 2d 39 bd ae e3 b9 bd d3 d0 5c bc
       0.018540487 -0.04520902 -0.090766296 -0.013477522
0000c0 eb b0 6c 3a 36 67 20 3d 90 9a cb bb 2e ed c0 3c
       0.00090290484 0.03916093 -0.0062134936 0.023550596
0000d0 c1 8f e9 3a fc fd fb 3c e8 a4 df ba 67 af 2c bb
       0.0017819331 0.030760758 -0.0017062696 -0.0026349665
0000e0 85 49 a5 3c c1 d9 b6 bc 19 c8 90 bb 2a 82 a5 bc
       0.020176658 -0.02232063 -0.0044183847 -0.020203669
0000f0 7a 07 ba bc e1 32 30 bd 96 e0 87 3d 70 4b 6a bd
       -0.022708643 -0.043017272 0.06634633 -0.05720085
000100 65 de 69 3c a3 60 84 bc a7 0c b2 bc fc 5c e7 3b
       0.014274214 -0.016159361 -0.021734549 0.007060645
000110 ac e6 43 b9 66 60 cd b3 cd 3b 67 2e 0f eb dd af
       -0.00018682581 -9.563591e-08 5.2576433e-11 -4.0366685e-10
000120 70 97 ad b5 e8 15 c7 29 b4 08 1d 2f d5 48 80 b8
       -1.2933579e-06 8.8411754e-14 1.4282159e-10 -6.117082e-05
000130 43 b6 0c ae ec f8 0e 30 61 e5 da ae 6b 9d 88 2f
       -3.1994195e-11 5.201304e-10 -9.954238e-11 2.4850108e-10
000140 14 f8 ff af fe ab 1d b0 47 04 3d 2f 20 63 bb b8
       -4.65605e-10 -5.7360683e-10 1.719097e-10 -8.935318e-05
000150 46 a5 18 af ce aa 28 30 bd 3f a1 2f 47 14 e6 ad
       -1.3883036e-10 6.136077e-10 2.9331018e-10 -2.6156978e-11
000160 72 f1 11 af c0 3b 03 b9 fa ae 4c ae 4f 35 3e b0
       -1.3273452e-10 -0.00012515392 -4.653964e-11 -6.9197353e-10
000170 e1 4e a5 ac de ae 34 ad 49 0a 03 b5 73 a1 0e 2f
       -4.6983394e-12 -1.0270644e-11 -4.881627e-07 1.2972183e-10
000180 3c cd 8a 2e ba a8 12 ad b0 c0 74 ae ac 77 b0 b6
       6.3119704e-11 -8.336604e-12 -5.5650318e-11 -5.2591404e-06
000190 59 ff 20 b5 15 1f 1e b2 6c ec d0 ae 36 ca 3c b4
       -5.9976225e-07 -9.203878e-09 -9.500742e-11 -1.7582428e-07
0001a0 df 3a b0 b3 5f 8c 36 b4 51 f0 ce b1 a8 26 f9 b2
       -8.206347e-08 -1.7001138e-07 -6.02271e-09 -2.9004994e-08
0001b0 ea e6 09 34 fa ce 93 35 f2 ee d3 b9 cf 23 d6 b8
       1.2843125e-07 1.1012592e-06 -0.00040423084 -0.00010210985
0001c0 0b e0 31 af 37 58 30 b9 7d 4c a0 b6 4a 6f 07 2f
       -1.6177652e-10 -0.0001681753 -4.777276e-06 1.2317716e-10
0001d0 2a c8 bf 2d 8f 02 b4 b6 4d d8 0a af c3 ab 45 b0
       2.1803077e-11 -5.364716e-06 -1.2627872e-10 -7.191227e-10
0001e0 48 f2 7e b1 e0 a8 f4 2f d6 db 6e af 38 8a 07 af
       -3.7099586e-09 4.4503334e-10 -2.1724075e-10 -1.2327284e-10
0001f0 09 84 9d 30 71 dd e4 b7 5a 88 b8 2f 6b c7 a4 2f
       1.146078e-09 -2.7282835e-05 3.356629e-10 2.997312e-10
000200 77 1d a8 2f e0 3c 84 b4 0a 54 10 b7 7f 26 25 af
       3.0579958e-10 -2.4631208e-07 -8.602636e-06 -1.5020339e-10
000210 9b d8 38 b4 55 ca f1 35 f8 40 fa b3 ac 30 6c b4
       -1.7215136e-07 1.8014786e-06 -1.165335e-07 -2.199692e-07
000220 1e bd ab bc 48 e9 16 bc dd fa 0f 3d 4d 55 6a 3c
       -0.020964202 -0.009210892 0.03515135 0.014302564
000230 7f 08 7d 3b 61 0e 05 bc 03 39 57 3c c0 01 cd 3c
       0.00386098 -0.008121104 0.013136151 0.025025249
000240 9e 51 bd 3b 3f a2 45 3c d5 41 2b 3c 23 98 0c bd
       0.005777552 0.012062608 0.010452707 -0.034324776
000250 91 8b e2 3c 56 11 1d 3d 23 2d f0 3a f4 02 33 3c
       0.027654441 0.03834661 0.0018323999 0.010925997
000260 57 ec 55 3c f3 11 a3 3c a0 34 53 3c 7d 02 93 bd
       0.013056836 0.01990602 0.012890965 -0.07178209
000270 e2 05 de bc 5c 54 0d bb 62 75 15 3d 7c af 8e 3b
       -0.027102415 -0.0021565175 0.036488898 0.0043544155
000280 33 b9 c4 3b c0 e2 8d 3c 6f 40 e2 bd da f3 d2 3b
       0.006003523 0.017320037 -0.11047446 0.006437761
000290 c0 4d de 3c cf 27 38 3c fb 62 6e 38 f3 8d d2 bc
       0.027136683 0.01123996 5.6835805e-05 -0.025702452
0002a0 87 29 17 bd 10 9a 02 bc 60 4c 11 3b fc 69 08 3d
       -0.036904838 -0.007971302 0.0022170767 0.0333042
0002b0 8d f9 c1 bd 8c b2 97 bc 53 bc 9c bb 44 73 06 bc
       -0.09471426 -0.018517755 -0.004783192 -0.008206192
0002c0 11 8a 41 bc c8 9d 11 3c ae cb 45 3a 8f 42 6a bd
       -0.011812703 0.008887716 0.0007545304 -0.05719238
0002d0 fd 3e 49 3b 67 aa 8e bc f6 03 1e bd 4b cb 08 bc
       0.003070771 -0.017415239 -0.038577996 -0.00834925
0002e0 79 ab 4e 3b 25 1f 3a bd 3b 22 f4 bb f9 f5 50 3d
       0.003153531 -0.045439858 -0.0074503697 0.051015828
0002f0 b3 5c 48 bc 01 19 55 3b 8e 70 19 3c 52 11 3b bc
       -0.0122291325 0.0032516124 0.009365214 -0.011417704
000300 12 7d 0c 3d c5 5f 7a bb f3 25 59 bc 6e 80 a6 bb
       0.034298964 -0.0038204056 -0.013253677 -0.005081228
000310 26 c1 e7 3c a0 e3 65 bb e1 f2 e2 bb e0 e3 fb bc
       0.028290343 -0.0035078302 -0.006925926 -0.030748308
000320 a2 ef 3d bd c9 21 15 bd a6 87 dc bb b8 7c 0e 3c
       -0.04637111 -0.036409173 -0.0067300377 0.008696727
000330 ca 0a 80 bd 7c 8d da 3b 1c 3a 5a bb 30 c8 44 bd
       -0.06252058 0.0066696983 -0.0033298796 -0.048042476
000340 d3 86 00 3c 95 52 37 3c e4 cc 6b bb 84 3e 5b bb
       0.007844645 0.011189123 -0.0035980279 -0.003345401
000350 1b 74 4c 3c 5d 2c 79 bc ab a1 b2 bc 2d 56 d9 3c
       0.012478854 -0.015208331 -0.021805605 0.02653035
000360 df f1 d4 3c 85 1e 7a bb bc 58 c8 bc 0f 8a c8 bc
       0.02599424 -0.0038165164 -0.024456374 -0.024479894
000370 bf 7c 9e 3b 26 51 71 bb 2d 0c 00 bc cc 54 3e 3d
       0.0048366482 -0.003682205 -0.007815403 0.046467587
000380 8b 31 b0 3c 88 b3 09 bc fd a4 50 3c b7 b1 5c 3b
       0.021507999 -0.00840462 0.012734649 0.0033675262
000390 83 d3 c5 bb b2 da 73 bc 35 10 e8 bd f2 26 b8 bb
       -0.006037177 -0.014883684 -0.11331216 -0.005619877
0003a0 88 40 6f bc 5a 61 42 3c bc 6c 93 bb 9a f8 07 bc
       -0.014602788 0.011864031 -0.004499046 -0.008299017
0003b0 3e 8b fa 3b 75 8e 04 3c 9d ef 99 bc e7 93 0e bc
       0.0076459935 0.008090605 -0.018791014 -0.008702255
0003c0 3f 21 99 3c c5 a2 61 3c 31 eb f1 3c 0c 58 22 bc
       0.01869261 0.013771717 0.029531093 -0.009908687
0003d0 a4 33 a7 3c 07 47 4c 3c 0c 74 37 3c 3d 58 90 3c
       0.020410366 0.012468106 0.011197101 0.0176202
0003e0 54 77 0c ba 8d ba 01 bd 59 bb 62 bc a6 08 9e 3b
       -0.00053583574 -0.03167205 -0.0138386125 0.0048228083
0003f0 12 a0 ce ba 49 d8 fb bc da 10 b9 3b b6 5f d1 38
       -0.0015764257 -0.030742781 0.005647761 9.983724e-05

fc2.bias f4 [32]
000000 a9 fc 09 3d b2 45 95 b5 aa a9 2b 3c 0c 44 2e 3c
       0.03368822 -1.1121649e-06 0.010477463 0.010636341
000010 59 3a 53 bb 19 ad 9d bb dc 8d 20 bd f4 e4 6d 3b
       -0.0032230823 -0.0048118946 -0.039197788 0.0036299797
000020 12 4f 04 3c 41 f1 e9 3c 12 ba 36 b5 7f 40 40 bd
       0.008075492 0.028557422 -6.807105e-07 -0.04693651
000030 aa a8 ab bc b7 51 3e bd 4f 48 af bc a8 cb 8f b9
       -0.020954449 -0.046464648 -0.021396784 -0.0002742682
000040 a0 bb e8 3c 66 7c b5 3c 76 ae 19 3d 9d ef 85 3d
       0.02840978 0.022154044 0.037519895 0.06539843
000050 c2 3c ad bb f0 70 5f 3c 05 d6 d4 b5 4e ff 9d bb
       -0.005286784 0.013637766 -1.5857519e-06 -0.0048216945
000060 b5 fc 1c bd 04 1f 28 3c 62 31 eb bb 98 99 86 3c
       -0.038326938 0.010261301 -0.0071775177 0.016430661
000070 fd 0b 80 bc b6 e8 66 b0 06 3c d2 3c ee 8e ff 3a
       -0.015630716 -8.4004215e-10 0.025663387 0.0019497552

fc3.weight f4 [1, 32]
000000 6d bf cb be df ec a0 3a 5e 7c 58 be cb ce 10 be
       -0.39794484 0.0012277624 -0.21141192 -0.14141385
000010 07 35 9c be ac bb 38 be 8d 40 6f be 0a 35 23 3e
       -0.30509207 -0.18040341 -0.23364468 0.15938202
000020 90 40 e1 3d 5b 8d be 3d 1b 21 8a 37 6f a2 a7 be
       0.109986424 0.09304305 1.6466298e-05 -0.32741114
000030 6b 9e 85 be 3c 8d 81 be 76 93 95 be 8f 39 cd ba
       -0.26097426 -0.25303066 -0.29214066 -0.0015657413
000040 89 a6 c1 3d b4 46 10 3e d3 63 a6 be ef 71 89 3e
       0.09455592 0.14089471 -0.32498035 0.26844737
000050 39 fc 1b be 45 9e 60 be a9 d0 93 ba a7 1f ec 3d
       -0.15232934 -0.21935375 -0.0011277396 0.11529475
000060 a3 e5 9d be ba 37 ef bd 1f 9f 4c be bc 3c 9a 3d
       -0.3083926 -0.11680551 -0.19982575 0.075311154
000070 d8 7f 3b be f2 fd d8 b7 d6 99 fd 3d ad 5d 37 be
       -0.18310487 -2.5867459e-05 0.123828575 -0.17906828
