tennis_checkpoint_actor.pth (torch_old, 22388 bytes, 6 tensors)

fc1.weight f4 [64, 48]
0	0x3de18a7c	0.11012742
1	0xbe0a437a	-0.13502303
2	0x3cae0e43	0.021247035
3	0x3db4e76f	0.08833205
4	0xbe844b31	-0.25838616
5	0x3e1c8ca7	0.1528803
6	0x3c843a35	0.016141037
7	0xbdb076ad	-0.086163856
8	0x3e24049a	0.1601738
9	0xbdc5f66b	-0.09666141
10	0xbd88abf4	-0.066734225
11	0x3dec5298	0.11539191
12	0xbe8bd3ef	-0.2731013
13	0x3e6e68ff	0.2328224
14	0x3d006761	0.03134859
15	0xbcfda45c	-0.030962162
16	0x3e564a46	0.2092677
17	0xbe37a368	-0.17933428
18	0xbc13ce62	-0.009021373
19	0xbdfeb676	-0.124371454
20	0xbef93eb3	-0.48680648
21	0x3f24fc4a	0.6444746
22	0xba1cbff2	-0.000597953
23	0x3d50b867	0.05095711
24	0xbe9eab5a	-0.30990106
25	0x3dba3389	0.09091861
26	0x3ce4e4e7	0.02794118
27	0x3dbf1285	0.09329704
28	0x3e938b00	0.28816986
29	0x3e2efc73	0.17088489
30	0xbde2c661	-0.11072994
31	0xbd6b82ca	-0.057497777
32	0xbe99dcd0	-0.3005128
33	0x3c8119b6	0.01575933
34	0xbd3730b0	-0.044724166
35	0xbe239e5a	-0.15978375
36	0x3e89edc8	0.26939225
37	0x3ec9abea	0.39388973
38	0x3d98cb64	0.07460669
39	0xbdb6249a	-0.088937
40	0xbe809956	-0.25116986
41	0xbdbc3561	-0.09189869
42	0xbdca762a	-0.09885819
43	0xbe4e8fa1	-0.20171978
44	0x3eb048a1	0.3443041
45	0x3f033600	0.5125427
46	0x3d91bc06	0.07115941
47	0xbe2ef17d	-0.17084308
48	0xbc16baf5	-0.0091998475
49	0xbc1d7fa8	-0.009612955
50	0x3d7ac8ad	0.061226536
51	0xbe0a2c1b	-0.13493387
52	0xbca18f0e	-0.019721534
53	0xbf157a17	-0.5838942
54	0x3b4f1ae4	0.0031601721
55	0x3ce47289	0.027886646
56	0xbe0692f4	-0.13141996
57	0xbc2a7ee1	-0.010406227
58	0x3d275a5c	0.040857658
59	0xbe996429	-0.2995923
60	0x3d98be98	0.07458228
61	0xbf0b9565	-0.5452483
62	0x3de44f89	0.111479826
63	0xbe205049	-0.15655626
64	0x3e2cfbc2	0.16892913
65	0xbdb149d9	-0.086566634
66	0x3e19fde6	0.15038261
67	0xbe29db1c	-0.1658749
68	0x3c997a6b	0.018735131
69	0xbf4b2df3	-0.7936699
70	0x3c715315	0.014729281
71	0xbdd85ef6	-0.10564987
72	0x3db59734	0.0886673
73	0x3c42800e	0.011871351
74	0xbdab22a6	-0.08356218
75	0x3e27354a	0.16328922
76	0xbdc99dc1	-0.09844542
77	0xbeefe5ef	-0.46855113
78	0xba8ae217	-0.0010595944
79	0x3e1513a2	0.1455827
80	0xbd643049	-0.05571011
81	0x3e8b9ff8	0.27270484
82	0xbcf1b8b9	-0.029507028
83	0x3df3bbdf	0.11901068
84	0x3cbfaac5	0.023396859
85	0xbf33ae38	-0.7018771
86	0xbc5fe0e5	-0.013664459
87	0x3eabb837	0.33538982
88	0xbc360f58	-0.011112057
89	0x3e72dc38	0.2371682
90	0xbda66e25	-0.08126477
91	0xbcec9eac	-0.028884254
92	0xbe09287a	-0.13394347
93	0xbf516bf9	-0.8180538
94	0x3ddbefdd	0.1073911
95	0xbcdf9ec3	-0.027297383
96	0x3d91f297	0.071263485
97	0xbe861a4a	-0.26191932
98	0x3c6b2d01	0.0143539915
99	0x3da70101	0.08154488
100	0x3df6207a	0.12017913
101	0xbdcc7c24	-0.099846154
102	0xbc9d5c94	-0.019209184
103	0xbe13f028	-0.14447081
104	0xbd3a8751	-0.045539204
105	0xbda1b1a5	-0.07895211
106	0x3e085943	0.133153
107	0x3d83806a	0.064209774
108	0x3e34549e	0.17610404
109	0xbeb2e9cf	-0.34944007
110	0xbdd61475	-0.104531206
111	0x3e574f18	0.21026266
112	0x3e083efa	0.13305274
113	0xbdf099c1	-0.11748076
114	0xbb86cb80	-0.0041136146
115	0x3d97b2c8	0.07407147
116	0x3e3f2364	0.18665844
117	0xbf16aa4c	-0.588536
118	0xbcc4029a	-0.023927022
119	0x3d27c1e4	0.040956393
120	0xbe796004	-0.24353033
121	0x3de807c6	0.11329608
122	0x3d90aeca	0.07064588
123	0x3d87ba76	0.066273615
124	0xbea55458	-0.32290912
125	0x3d433601	0.047658924
126	0x3da41574	0.08011904
127	0x3da06f68	0.07833749
128	0xbe071dff	-0.13195036
129	0x3e5be42d	0.21473761
130	0x3dc8d43d	0.09806106
131	0xbd0d4941	-0.03449369
132	0xbe8296ec	-0.2550577
133	0xbe7a85d3	-0.24465112
134	0xbce6d10c	-0.028175853
135	0x3b31f8bb	0.0027156312
136	0xbe91ed81	-0.28501514
137	0x3e1196f7	0.14217745
138	0x3d8a6447	0.06757408
139	0x3e7e103c	0.2481088
140	0xbd3b8848	-0.045784265
141	0xbedd091d	-0.43171015
142	0x3c2761c3	0.010216179
143	0x3dbbd318	0.09171122
144	0x3d6b433f	0.057437178
145	0xbe68784d	-0.22702141
146	0x3db2faf0	0.08739269
147	0xbe086ce5	-0.1332279
148	0x3da5c6cc	0.08094558
149	0xbd4e0443	-0.050297033
150	0x3e5cf971	0.2157953
151	0xbe18cbff	-0.14921568
152	0x3d41f73a	0.047354914
153	0x3d574eef	0.05256551
154	0x3e221cd5	0.15831311
155	0xbeab7f32	-0.3349548
156	0xbdfc48b5	-0.12318555
157	0x3db575fa	0.08860393
158	0xbcdcf061	-0.02697009
159	0xbe1ad0f1	-0.15118767
160	0x3dfe9bb0	0.12432039
161	0xbe34e470	-0.17665267
162	0xbbd46d6a	-0.0064827697
163	0xbc635a29	-0.013876476
164	0xbc4080ce	-0.011749459
165	0x3e4a2e0f	0.19744132
166	0x3dd71d5e	0.10503648
167	0xbe5fe70c	-0.21865481
168	0xbdb50b22	-0.08840014
169	0xbee8a9f6	-0.4544217
170	0x3c2ee12f	0.010673805
171	0x3d007905	0.031365413
172	0x3d3bede5	0.04588117
173	0x3db6800a	0.0891114
174	0x3bca3cc5	0.006171795
175	0x3cc416a1	0.023936572
176	0x3d734d8b	0.059400123
177	0xbe4946fa	-0.19655982
178	0x3e2b4fe1	0.1672969
179	0xbbc60650	-0.006043233
180	0x3ca4c9f9	0.02011584
181	0x3d6c7e9e	0.05773794
182	0xbbc272d3	-0.0059340983
183	0x3e213bb0	0.15745425
184	0xbdf108b3	-0.11769237
185	0xbe2ec6d8	-0.1706804
186	0xbd1b292e	-0.03788107
187	0x3db75e8d	0.08953581
188	0x3c245e36	0.010032227
189	0x3ea7bd94	0.32761824
190	0x3c5c2009	0.013435372
191	0x3e4daeeb	0.20086257
192	0xbe25bffc	-0.16186517
193	0x3dd2e3c5	0.1029735
194	0x3dfd442b	0.12366518
195	0xbdb86189	-0.09002978
196	0x3d9404c2	0.0722747
197	0xbd88024a	-0.066410616
198	0x3df11584	0.11771682
199	0xbdee0623	-0.11622264
200	0xbe30e90b	-0.17276399
201	0x3da61c6c	0.0811089
202	0x3e6f44a9	0.23366036
203	0xbd5fbf8f	-0.054626044
204	0xbdd9d4ef	-0.10636317
205	0xbc5ff4c3	-0.013669196
206	0x3d6227b2	0.055213638
207	0x3c2f4c0a	0.0106992815
208	0xbd361238	-0.04445097
209	0x3e51c3a8	0.20484793
210	0xbc83da7b	-0.01609539
211	0x3e6f74cb	0.23384397
212	0xbe74aac1	-0.23893262
213	0xbcdc1d8e	-0.026869562
214	0xbb0ba3f6	-0.0021307445
215	0x3e01bedb	0.12670462
216	0xbdbfad1a	-0.093591884
217	0x3e9ceec7	0.30650923
218	0xbd78acc5	-0.06071164
219	0xbde2e99a	-0.11079712
220	0x3dedaf6a	0.11605723
221	0x3e003217	0.12519108
222	0xba82386c	-0.0009935028
223	0xbd26ad7e	-0.0406928
224	0xbe34195b	-0.17587797
225	0x3ead2874	0.33819926
226	0xbc565e2f	-0.013083979
227	0xbd0c3d8a	-0.034238376
228	0xbb84930e	-0.0040458506
229	0x3d1206f8	0.035651177
230	0x3e25f289	0.16205801
231	0xbbac4a6e	-0.005257896
232	0xbc9b64ef	-0.018969027
233	0x3eb2143d	0.34781066
234	0xbd2f9388	-0.042865306
235	0x3deb37d4	0.11485258
236	0x3e722615	0.2364734
237	0x3dd631c6	0.10458712
238	0xbd5f3fc2	-0.054504164
239	0x3d1a7d6e	0.037717275
240	0xbdfe03d9	-0.12403078
241	0xbc529150	-0.012852028
242	0x3dd7419d	0.105105616
243	0xbd198d66	-0.037488364
244	0xbd89724d	-0.06711254
245	0x3d88f43d	0.0668721
246	0x3e1aedb8	0.15129745
247	0xbd7bcb8c	-0.061473414
248	0xbd0f9f90	-0.03506428
249	0x3e07a4cd	0.1324646
250	0xbd92bd4e	-0.07165013
251	0x3da1a795	0.07893292
252	0xbdddcdb7	-0.108302526
253	0xbec645e8	-0.3872521
254	0xbc35cd62	-0.01109633
255	0xbd447df6	-0.04797169

fc1.bias f4 [64]
0	0x3df4651e	0.11933349
1	0x3d8a8c1a	0.067650035
2	0xbd6ed774	-0.05831094
3	0xbe1ef5c8	-0.15523446
4	0x3e30c4ff	0.17262648
5	0x3dc68e82	0.0969515
6	0xbd0671a6	-0.032823227
7	0xbc8aa0fd	-0.016922468
8	0x3e3986cc	0.18117827
9	0x3ea03286	0.31288546
10	0x3d69abe0	0.05704868
11	0x3ebba452	0.36648804
12	0xbe079dce	-0.13243791
13	0x3e8e88af	0.27838656
14	0x3dd0755a	0.10178633
15	0x3da81594	0.08207241
16	0xbd85703f	-0.0651555
17	0x3e43c4c0	0.19118023
18	0x3d21ff2c	0.03954999
19	0x3c20138a	0.0097702835
20	0x3db7b484	0.089699775
21	0x3bfadaf6	0.0076554967
22	0xbd194555	-0.037419636
23	0x3e4ab1c8	0.1979438
24	0xbd9be581	-0.07612134
25	0xbc93250d	-0.017962003
26	0xbc416725	-0.011804377
27	0x3e8e923d	0.27845946
28	0xbc0d662a	-0.008630315
29	0x3e2f571f	0.17123078
30	0xbbb75303	-0.0055946126
31	0x3ddc76ba	0.10764833
32	0x3e964c5d	0.29355136
33	0xbdbde8b8	-0.09272903
34	0xbea173b4	-0.31533587
35	0x3c542df8	0.012950413
36	0x3dceab88	0.10091311
37	0x3e6d6ff1	0.23187234
38	0xbc2a7bb6	-0.010405472
39	0xbe3197bf	-0.17343043
40	0x3e8a09c7	0.26960585
41	0x3e47fffe	0.19531247
42	0xbddc5031	-0.10757483
43	0x3e1830e9	0.14862408
44	0x3dfb8f99	0.122832485
45	0xbe21bd1b	-0.15794794
46	0x3e920fe8	0.2852776
47	0x3e812f45	0.25231376
48	0x3e8f0169	0.27930763
49	0xbcfb7b64	-0.030698486
50	0xbe1fbc72	-0.1559923
51	0xbcd617a7	-0.026134325
52	0x3e1d9c88	0.15391743
53	0xbe39e3d6	-0.18153319
54	0x3dba09c9	0.090838976
55	0xbc9b4819	-0.018955277
56	0x3e60153b	0.21883099
57	0x3ea29689	0.31755474
58	0xbd35dcac	-0.044399902
59	0xbdf2d2c6	-0.11856608
60	0x3e7b1c53	0.24522524
61	0x3b27a277	0.0025579014
62	0x3dde3d2e	0.10851513
63	0x3dc63d1d	0.09679625

fc2.weight f4 [32, 64]
0	0xbed983bc	-0.42483318
1	0xbe13c340	-0.1442995
2	0x3e775ab8	0.241557
3	0xbe5b1414	-0.21394378
4	0x3c444f3b	0.011981781
5	0x3ea93714	0.33049834
6	0xbc6b88b1	-0.0143758515
7	0xbdc47ab9	-0.0959372
8	0xbdb97c9a	-0.09056969
9	0x3e73d0de	0.23810145
10	0x3dff9f48	0.12481552
11	0x3e05b540	0.13057423
12	0xbe865fea	-0.26245052
13	0x3ee25e51	0.44212583
14	0xbd10b3f7	-0.035327878
15	0x3dd297ca	0.10282858
16	0x3ec52c1d	0.38510218
17	0x3e6705eb	0.22560851
18	0x3e43ce6a	0.1912171
19	0x3d7f70af	0.062363323
20	0x3ea572a1	0.32314017
21	0xbd69ebbb	-0.057109576
22	0x3e79f69e	0.24410483
23	0x3dc51291	0.09622682
24	0xbdb1b26a	-0.08676608
25	0x3d83140a	0.064003065
26	0xbe28f036	-0.16497883
27	0xbb76f419	-0.0037682115
28	0x3ee32716	0.44365758
29	0x3e87e237	0.26539776
30	0xbe0d9d45	-0.13829525
31	0x3ebb3c38	0.3656938
32	0x3be4d0f2	0.006982916
33	0xbeaa8df5	-0.3331143
34	0xbe77bf7f	-0.24194144
35	0x3e889689	0.2667735
36	0x3d76b875	0.060234506
37	0x3db0ecca	0.08638914
38	0x3dd60223	0.10449626
39	0xbe07caa8	-0.13260901
40	0x3e529028	0.20562804
41	0x3daf57db	0.08561679
42	0x3d540007	0.05175784
43	0x3d3d0a26	0.046152256
44	0x3db5a5cd	0.088695146
45	0xbeb5f2de	-0.35536855
46	0xbcdd90bd	-0.027046556
47	0xbc4e65bb	-0.012597497
48	0xbd1df679	-0.038565133
49	0xbcc182f0	-0.023622006
50	0x3e83290f	0.25617263
51	0xbdd534c0	-0.10410452
52	0xbda9c178	-0.08288854
53	0x3ddf7e21	0.10912729
54	0x3e2087bd	0.1567678
55	0xbe4fddee	-0.20299503
56	0x3e40cf7d	0.1882915
57	0x3e666810	0.22500634
58	0x3e12e251	0.14344145
59	0xbe074787	-0.1321088
60	0xbd7405ff	-0.05957603
61	0xbd94e684	-0.0727053
62	0x3e033905	0.1281472
63	0x3d42a357	0.047519054
64	0x3da19530	0.078897834
65	0xbdcd6364	-0.10028723
66	0xbe1d634a	-0.15369907
67	0x3e15d8cc	0.14633483
68	0xbdcbbb4f	-0.09947836
69	0xbe1a4df9	-0.15068807
70	0x3eb71da5	0.35764804
71	0xbe835fc7	-0.2565901
72	0xbe215bb0	-0.15757632
73	0xbd9f7bde	-0.07787298
74	0x3dd27739	0.10276646
75	0x3d1d4bbc	0.038402304
76	0x3e8bdc2f	0.27316424
77	0xbec54090	-0.3852582
78	0xbec070a0	-0.37585926
79	0x3d04cd10	0.032422125
80	0xbe0a9ad2	-0.13535622
81	0xb9c59811	-0.00037688066
82	0xbe7640e4	-0.24048191
83	0x3e84a1ae	0.25904602
84	0xbd91e8a9	-0.071244545
85	0x3d068cfc	0.032849297
86	0x3cddbf1d	0.027068669
87	0x3d27c469	0.040958796
88	0x3d93f670	0.072247386
89	0x3e9691af	0.29408023
90	0xbea27245	-0.31727806
91	0xbe2f626b	-0.17127387
92	0xbdb92436	-0.0904011
93	0xbd851d94	-0.06499782
94	0x3dc80882	0.09767248
95	0xbd4013c4	-0.04689385
96	0xbe958dd2	-0.29209763
97	0x3d8ec4a3	0.06971099
98	0x3c887e08	0.016661659
99	0xbcec6d4d	-0.028860712
100	0xbeca48cc	-0.39508665
101	0xbe605c90	-0.2191031
102	0x3e5aba89	0.2136022
103	0x3e796922	0.24356511
104	0x3e0ddb6b	0.13853233
105	0xbe4d4750	-0.20046735
106	0x3e7a824f	0.24463771
107	0xbdc09358	-0.094031036
108	0x3e3894ca	0.18025509
109	0x3e9252d3	0.28578815
110	0xbeaa7ec4	-0.3329984
111	0xbe40c0e8	-0.18823588
112	0x3dcd54f6	0.10025971
113	0xbeb3b2e6	-0.35097426
114	0x3e737155	0.23773701
115	0x3e1e5db4	0.15465432
116	0x3ed12522	0.40848643
117	0x3de59d2f	0.11211621
118	0x3e8bd9f8	0.27314734
119	0xbcef01c1	-0.029175641
120	0x3ea0b019	0.31384352
121	0xbea606e1	-0.32427123
122	0xbe229ed5	-0.15880902
123	0xbd3452b1	-0.044024173
124	0x3e5aa397	0.21351467
125	0xbe777e24	-0.24169213
126	0x3e5a71df	0.21332501
127	0x3d1e9992	0.038720675
128	0x3b501c05	0.0031754982
129	0x3f04fdd4	0.5194981
130	0x3ed6381c	0.41839683
131	0xbd7c84a5	-0.061649937
132	0xbe6d411a	-0.23169366
133	0x3e3567fd	0.1771545
134	0xbd89225e	-0.06696008
135	0x3e333d22	0.17503789
136	0x3e13bf23	0.14428382
137	0xbc132d31	-0.008982942
138	0x3d400be8	0.046886355
139	0x3ea683b9	0.3252237
140	0xbdcaeb7d	-0.09908197
141	0x3e32222b	0.17395847
142	0x3df4e2d8	0.119573295
143	0xbd8bfff6	-0.0683593
144	0x3e7ac241	0.24488164
145	0x3e19a02c	0.15002507
146	0x3e05ad60	0.13054419
147	0xbe9a231e	-0.30104917
148	0x3e702486	0.23451433
149	0x3e52be1e	0.20580336
150	0x3e54846f	0.20753644
151	0x3e328cdc	0.17436546
152	0xbdc354d2	-0.095376626
153	0x3d509b41	0.05092931
154	0x3e57a5f2	0.21059397
155	0x3e2a3df1	0.16625191
156	0xbe6b6831	-0.22988965
157	0x3e73adb1	0.23796727
158	0xbe1247d7	-0.14285217
159	0xbe00628b	-0.12537591
160	0x3e367071	0.1781633
161	0x3e881188	0.26575875
162	0xbddf63e9	-0.10907728
163	0xbd401fdd	-0.046905387
164	0x3cb28346	0.021791112
165	0x3e44f6f0	0.19234824
166	0xbe88b8ca	-0.26703483
167	0xbddd99fb	-0.10820385
168	0x3eba6c69	0.36410835
169	0x3d8d28d1	0.06892551
170	0xbe6c71ca	-0.23090282
171	0x3b9569dd	0.004559739
172	0x3e04de87	0.12975512
173	0xbdf81ccd	-0.12114868
174	0xbd600520	-0.054692388
175	0xbd6f0a5a	-0.05835948
176	0x3dea8ec2	0.1145301
177	0x3eec00be	0.46094316
178	0xbc863a38	-0.016385183
179	0xbd678fc8	-0.056533605
180	0xbd0a8b18	-0.033824056
181	0x3d62eb1b	0.055399995
182	0x3d9c4622	0.07630564
183	0x3e5a38ac	0.21310681
184	0x3e4b5591	0.1985686
185	0x3e265b97	0.16245876
186	0xbd9da901	-0.076982506
187	0xbe38ea1d	-0.18058057
188	0x3dad395f	0.08458208
189	0x3ce49c4e	0.027906563
190	0xbca599c3	-0.02021492
191	0xbebebe4f	-0.3725457
192	0x3e324bc8	0.17411721
193	0x3f165ee4	0.5873854
194	0x3eaa797e	0.33295816
195	0x3ca166e7	0.019702388
196	0xbdc61664	-0.096722394
197	0x3e086460	0.1331954
198	0xbde8d2b7	-0.11368316
199	0x3e443530	0.19160914
200	0x3e61c820	0.22048998
201	0x3e00e8d2	0.12588814
202	0xbb24a5ce	-0.0025123241
203	0x3e486640	0.19570255
204	0x3e7c2951	0.24625136
205	0xbe1eb515	-0.15498765
206	0x3e57d87c	0.21078676
207	0xbe3b376e	-0.18282863
208	0x3dc62e22	0.09676768
209	0x3ed80495	0.42190996
210	0xbd1dc523	-0.038518082
211	0xbe5d8f47	-0.21636687
212	0xbcdff219	-0.02733712
213	0x3df0a97d	0.11751077
214	0xbe3ad704	-0.18246084
215	0x3d82422a	0.06360276
216	0xbce4246a	-0.027849395
217	0x3e606478	0.21913326
218	0x3dabf7ec	0.08396897
219	0x3e7ee3a9	0.24891533
220	0xbed79c3d	-0.42111388
221	0x3e2f74c7	0.17134391
222	0x3dee2d44	0.116297275
223	0xbc0f1a84	-0.008734349
224	0x3e24ae6d	0.16082163
225	0x3e2af0ba	0.16693392
226	0xbe6ba899	-0.23013534
227	0xbe2fb82c	-0.171601
228	0x3e483ebc	0.19555181
229	0x3e6a5642	0.22884467
230	0xbe316b5f	-0.17326115
231	0xbe1ed3f6	-0.15510544
232	0x3ec2b666	0.38029784
233	0x3e5ed045	0.21759136
234	0xbd8fbef8	-0.07018846
235	0x3df49f5e	0.119444594
236	0xbe2bbee2	-0.16772035
237	0x3d2294b8	0.03969261
238	0x3ea2ef11	0.31823018
239	0x3dec0318	0.115240276
240	0x3de119e6	0.10991268
241	0x3ebfb578	0.37443137
242	0xbe93411a	-0.28760606
243	0x3e0c6064	0.13708645
244	0xbd579e07	-0.05264094
245	0x3ca6a738	0.020343408
246	0xbbd19f7e	-0.006397187
247	0x3ed838ea	0.42230922
248	0x3d8a7542	0.067606464
249	0xbdb4f855	-0.08836428
250	0xbe85cb31	-0.26131585
251	0xbe839521	-0.25699714
252	0x3e0552bf	0.13019846
253	0xbcb8be1c	-0.022551589
254	0xbe4128b8	-0.18863189
255	0xbe624f06	-0.22100458

fc2.bias f4 [32]
0	0x3e6dafca	0.2321159
1	0xbcd2498f	-0.025669841
2	0x3e87c813	0.26519832
3	0x3ddc47ed	0.10755906
4	0x3cf22616	0.029559176
5	0x3e09a615	0.13442262
6	0xbbc4e4b3	-0.0060087084
7	0x3e025b64	0.12730175
8	0x3e50061c	0.2031483
9	0xbdc2a7af	-0.09504639
10	0x3c18d509	0.009328135
11	0xbe7bc911	-0.2458842
12	0x3dd3cf30	0.10342252
13	0x3df8233e	0.12116097
14	0x3d0811cc	0.033220097
15	0x3dc0869a	0.09400673
16	0xbc9be9ec	-0.019032441
17	0x3e48771a	0.19576684
18	0x3de40d52	0.11135353
19	0x3d048822	0.03235639
20	0x3cb16b14	0.021657504
21	0x3e19d5df	0.15022992
22	0xbc042322	-0.008065017
23	0xbc555535	-0.013020803
24	0xbe246707	-0.16054927
25	0xbca59259	-0.020211386
26	0x3d5d42d9	0.05401883
27	0xbd9e1c73	-0.0772027
28	0x3e015d33	0.12633209
29	0x3d59eb10	0.05320269
30	0x3c896e64	0.016776271
31	0xbde971a5	-0.11398629

fc3.weight f4 [4, 32]
0	0x3ebfbcc8	0.37448716
1	0xbdd324dc	-0.10309765
2	0x3d4e17d6	0.0503157
3	0xbd84ee32	-0.06490745
4	0x3d7dd700	0.061972618
5	0xbd5393fd	-0.051654804
6	0x3e85b32e	0.26113266
7	0xbd95074d	-0.07276783
8	0x3e85083b	0.25982842
9	0x3d3e8574	0.04651399
10	0xbec3cb94	-0.38241255
11	0xbe50c943	-0.20389275
12	0xbe7f7399	-0.24946441
13	0x3e812c01	0.25228885
14	0xbc96ff50	-0.01843229
15	0x3ccf7667	0.025325013
16	0x3e822d09	0.25424984
17	0xbd6a654b	-0.057225507
18	0x3d3c8194	0.046022013
19	0xbe181edb	-0.1485552
20	0xbea3ea24	-0.32014573
21	0x3e8c2c5b	0.2737759
22	0xbeebc3dd	-0.4604787
23	0x3d00d7d5	0.031455833
24	0x3e95f094	0.2928511
25	0xbe213ef1	-0.15746666
26	0xbd528bac	-0.051402733
27	0xbecdf416	-0.40225285
28	0x3e661f0f	0.22472785
29	0xbeef9cc9	-0.46799305
30	0xbe595739	-0.21224679
31	0xbda23446	-0.079201266
32	0xbef5e2f3	-0.4802471
33	0xbf2127db	-0.6295144
34	0x3e214fae	0.15753052
35	0x3e541be5	0.20713766
36	0xbd3aed1e	-0.04563629
37	0x3ce72910	0.028217822
38	0xbe384240	-0.17994022
39	0x3e129531	0.14314725
40	0xbbbe3588	-0.0058047213
41	0x3b8d1575	0.0043055364
42	0x3d33425b	0.043764453
43	0xbd560c17	-0.052257624
44	0xbce6b995	-0.028164664
45	0x3e3a29bc	0.18179983
46	0x3c5650a9	0.013080754
47	0xbee30b1c	-0.44344413
48	0x3d933821	0.0718844
49	0xbd26a5f7	-0.04068562
50	0xbd4a5702	-0.049399383
51	0xbeb62255	-0.35573068
52	0x3ba1615a	0.0049249353
53	0x3e981d43	0.29709825
54	0x3e6e4ea9	0.23272194
55	0xbe92e1bd	-0.2868785
56	0x3d9e4634	0.07728234
57	0x3d2d409f	0.042297956
58	0xbd2997e2	-0.041404612
59	0x3e1b7ea3	0.15185027
60	0xbe9741e5	-0.2954246
61	0x3d8879c0	0.06663847
62	0xbe6217a6	-0.22079334
63	0xbe42792c	-0.18991536
64	0x3d358ec1	0.044325594
65	0xbdee8f3c	-0.116484135
66	0x3db864a4	0.09003571
67	0x3d9ab030	0.07553136
68	0xbe735568	-0.23763049
69	0xbe09c7db	-0.13455145
70	0xbe0893de	-0.13337657
71	0x3d23e555	0.04001363
72	0x3d87471d	0.06605361
73	0x3dc50667	0.09620362
74	0xbd5a5dde	-0.053312175
75	0xbe5bab58	-0.21452081
76	0x3ed60493	0.41800365
77	0xbdf4742d	-0.11936221
78	0x3e15f340	0.14643574
79	0x3c37d867	0.011221028
80	0xbe90e94f	-0.28303
81	0xbe6b7340	-0.22993183
82	0xbd621ab4	-0.055201247
83	0xbe0400aa	-0.12890878
84	0x3ab4ccc7	0.0013793939
85	0x3c99ec7a	0.018789519
86	0x3d95bad2	0.07311024
87	0x3cf3c2a4	0.029755898
88	0xbe803326	-0.25039023
89	0xbe200012	-0.15625027
90	0x3e2e2940	0.17007923
91	0xbd83a9b4	-0.06428853
92	0x3c4f4847	0.01265151
93	0x3e0decc7	0.13859855
94	0xbe616373	-0.22010593
95	0x3ea592ed	0.32338658
96	0x3c27fc30	0.010252997
97	0x3e944a63	0.28963003
98	0x3cd77cfd	0.026304716
99	0x3ccf190b	0.025280496
100	0xbd90fe70	-0.0707978
101	0xbe0fae6a	-0.14031377
102	0xbd3318c8	-0.043724805
103	0x3d19d382	0.037555225
104	0xbe0f2690	-0.13979554
105	0x3e367a37	0.17820059
106	0x3d422a7d	0.0474038
107	0xbe9568e4	-0.29181588
108	0xbe1d07c1	-0.15334989
109	0xbdc1186f	-0.094284885
110	0xbda1ac80	-0.0789423
111	0xbe5fb6ff	-0.21847151
112	0x3ca1e5f9	0.01976298
113	0x3eb2ac65	0.34897152
114	0xbe0bc3de	-0.13648936
115	0x3de31b98	0.110892475
116	0xbecfd1a4	-0.4058963
117	0xb9685d38	-0.00022159971
118	0xbcb3b917	-0.021938844
119	0x3e7e7a90	0.24851441
120	0x3dcd810f	0.100343816
121	0xbd017ca0	-0.031612992
122	0xbd97f202	-0.07419206
123	0x3e6e3eef	0.23266195
124	0x3ba3158e	0.0049769348
125	0x3c49604a	0.0122910235
126	0xbb8d6c0e	-0.0043158596
127	0x3e2330bd	0.15936561

fc3.bias f4 [4]
0	0x3e36c764	0.17849499
1	0x3d8c35ca	0.06846197
2	0x3c13e60d	0.009027016
3	0xbca36e3f	-0.01995003
