tennis_checkpoint_actor_1score.pth (torch_old, 22388 bytes, 6 tensors)

fc1.weight f4 [64, 48]
000000 c0 af 4f be 2b 81 ef bd 15 a7 60 bc d1 03 53 3d
       -0.20281887 -0.11694559 -0.01371171 0.05151731
000010 a8 9e 93 3e 17 95 0c 3d 36 28 9a bc 17 db fb bd
       0.28831983 0.03432187 -0.018818002 -0.122976474
000020 df 3a 46 bd 8b 65 e3 bc c3 94 49 bd 76 b2 88 3d
       -0.048395988 -0.02775838 -0.049214136 0.06674664
000030 e7 4d 4b be 71 89 dc bb 77 2c 48 3d a6 07 a3 bd
       -0.19853936 -0.0067302515 0.04887053 -0.07960443
000040 ef c8 b8 3d f3 ab b4 3c 9e f3 4a bc ad c9 91 bd
       0.090227 0.022054648 -0.012387184 -0.07118545
000050 85 f3 61 bf 44 43 3f 3e 36 df 81 bb f3 47 d5 3d
       -0.88262206 0.18678004 -0.0039633764 0.10414114
000060 08 a3 48 bc 27 b9 1f 3c d5 dd 8b 3d 2a 9a af 3d
       -0.012245901 0.009748734 0.068294205 0.08574326
000070 94 5d 84 be ce 54 56 3d cb 22 90 bd 86 3a 85 bd
       -0.25852644 0.05232697 -0.07037886 -0.06505303
000080 cc 31 2d 3d 60 d0 12 3d 27 9a 6e bd 74 e2 8c bd
       0.042283818 0.035843253 -0.05825248 -0.0687913
000090 b3 81 47 3e e8 0a 1e 3e f8 2a 7a 3d 28 a6 06 3b
       0.1948307 0.15433848 0.061076134 0.0020545814
0000a0 d2 c3 c9 3d 69 69 22 3d 21 33 96 bd 9f bc 89 bc
       0.09851803 0.03965131 -0.07333971 -0.016813574
0000b0 63 78 3d 3f c8 ab 60 3d bb ff c5 3d be 67 66 3c
       0.7401182 0.054851323 0.09667917 0.01406282
0000c0 8a dd d8 3d 7c 4f 03 3b e3 5c 45 3d 58 dc 09 be
       0.1058913 0.002003639 0.048184287 -0.1346296
0000d0 3a 59 8f bd b2 75 0a bf ba e6 21 bc d9 eb e6 3c
       -0.069994405 -0.5408584 -0.00988167 0.028188633
0000e0 75 b2 53 bd 4f f4 8b 3d 29 ef cf bc cd ac e4 bd
       -0.05168386 0.068337075 -0.025382595 -0.11165772
0000f0 78 75 2d be 88 3c c2 3d f7 4a 39 3d f0 85 00 3d
       -0.16939342 0.09484202 0.045237508 0.031377733
000100 e6 2a 1b 3e 41 1c 2f 3c c1 f0 50 3d ab 13 9c bd
       0.15153083 0.010687889 0.05101085 -0.07620939
000110 07 d1 c0 be 11 65 09 3f 09 5a ad bd 38 f4 82 bc
       -0.37659475 0.5366984 -0.084644385 -0.015985593
000120 51 1f 5d 3d b2 5f 90 bc da 78 65 bd ed 24 0f bd
       0.053984944 -0.017623756 -0.056023456 -0.034947325
000130 c1 4d 45 bd d6 db d9 be 1c ea d8 3c d7 ab 57 bd
       -0.048169855 -0.42550534 0.02647882 -0.052654114
000140 e1 14 04 bd 84 93 d4 3d 5a cf aa bc a3 f6 eb bd
       -0.032246474 0.10379699 -0.020850826 -0.115216516
000150 90 e4 88 3e 30 15 7d bd be 19 a4 bb a3 2e cf 3d
       0.2673688 -0.061787784 -0.0050079515 0.10116317
000160 d3 93 82 3d 06 13 85 bc 7e 8b 8a bd e4 c9 8e 3d
       0.063758515 -0.016244423 -0.06764887 0.06972101
000170 4f d4 85 3e 2b 27 03 3f a8 d4 f7 3d 1a 0a 92 3d
       0.2613854 0.5123164 0.12101108 0.07130833
000180 4a 9b 49 3e 2c bd d0 bd 81 e6 a3 bc 35 ea 76 3d
       0.19688144 -0.10192332 -0.020007374 0.06028195
000190 09 16 48 be 8e 64 6c 3d 08 6c 5b bd f4 b5 29 be
       -0.19539656 0.057713084 -0.053569824 -0.16573316
0001a0 3e 42 28 3e e0 72 11 bd 3a 05 36 3e 45 24 f5 bc
       0.1643152 -0.035509944 0.17775431 -0.029924521
0001b0 e8 46 15 3e 2a 25 4b be ec 78 75 bd cc d4 ed 3d
       0.1457783 -0.19838396 -0.059929773 0.116128534
0001c0 95 fa bf 3e 5c 2b 95 bd 3d 23 02 3e 12 b9 ca 3d
       0.37495866 -0.07283661 0.12708755 0.098985806
0001d0 84 00 78 3e 85 b0 ab be 8c b3 db 3d b0 e6 86 3d
       0.24218947 -0.3353311 0.10727605 0.06586969
0001e0 7a 02 a1 3d 53 81 18 3e ae fb ec 3a a7 ae 9d 3c
       0.078618005 0.14893083 0.0018080377 0.01924832
0001f0 cd 42 f0 bb 3d 26 52 3e a9 d4 38 3c cc 41 00 3d
       -0.007332182 0.20522399 0.011281171 0.03131275
000200 15 87 ba 3d f6 50 63 3e 86 73 d7 3d 6d 0e 2c bc
       0.09107796 0.22198853 0.10520081 -0.010501486
000210 1f 20 66 be f7 ab bf bd 73 4e ac bc 8d c6 da 3c
       -0.2247319 -0.093589716 -0.021033501 0.026706005
000220 6c f2 b9 bd f2 ea e5 3d 17 d3 d0 3d b1 a2 84 3d
       -0.090794414 0.11226453 0.10196512 0.064763434
000230 32 80 cf bd 93 ca 36 be 0c b5 36 3d 80 ad bb bd
       -0.10131873 -0.17850713 0.044606254 -0.09163952
000240 e2 98 1a 3e c6 02 f1 be 91 c7 60 bd 61 86 b1 3d
       0.15097383 -0.47072428 -0.05487782 0.08668209
000250 bb 6b f5 3c 8a a9 86 be 9d 93 96 3d db c7 90 3d
       0.029958596 -0.26301223 0.07352374 0.070693694
000260 d9 91 38 3e 72 50 27 bd f3 53 07 3e 5b 0d 51 3e
       0.18024386 -0.040848203 0.13215618 0.20415251
000270 3b 08 48 be 8b 90 3e bd d1 9b 59 bd 60 9d c6 3e
       -0.1953439 -0.046524566 -0.053127114 0.38791943
000280 35 95 87 3e 31 16 bc bd ce 14 03 3d 4d 10 f7 3e
       0.26481023 -0.0918392 0.032002263 0.48254624
000290 41 e9 ca bd a3 89 20 3e 83 f7 12 3e 9b 37 8e 3e
       -0.09907771 0.15677504 0.1435223 0.277768
0002a0 d3 cb 83 bd 0c b4 73 be 76 a3 2c 3d 36 04 55 bc
       -0.06435361 -0.23799151 0.042148076 -0.013001492
0002b0 62 64 c6 3d 2f 25 fd bd 42 33 1a 3d b0 5f a7 bc
       0.09687115 -0.12360608 0.03764654 -0.02043137
0002c0 22 ab 39 3e de ed ba 3d 94 ec ab 3d 10 d3 fc bd
       0.18131688 0.09127401 0.08394733 -0.123449445
0002d0 8b fd bc 3d 2a 7f 9e bd 08 db b6 bd 79 07 24 3d
       0.09228047 -0.07739098 -0.08928496 0.04004619
0002e0 76 47 dc 3d 85 f5 05 3e ab 3b a8 bd 71 19 24 be
       0.107558176 0.1308194 -0.08214506 -0.1602533
0002f0 df 64 c7 3d b0 eb 92 3e 8b 88 fc bc ac 69 48 bd
       0.097360365 0.2869544 -0.030826828 -0.0489289
000300 80 2d c3 bd 3e cb b3 3c 7b 5c bf bb aa ad a5 bc
       -0.09530163 0.0219475 -0.005839882 -0.020224411
000310 86 f9 cc 3e be fc f8 3d ab 26 41 bc 2b 1e 3e bd
       0.4003412 0.12157582 -0.011789004 -0.04641549
000320 46 7d db bd 31 5d 2f 3c 11 db 8e 3d 85 79 b4 bb
       -0.107172534 0.010703371 0.06975377 -0.0055076503
000330 f8 7a 4f 3e f0 1e ca bd ed 99 de bd 37 03 75 3d
       0.20261753 -0.09869182 -0.10869203 0.05981752
000340 64 12 e6 bb 31 54 67 bc ee c0 31 bd fa cd a0 3d
       -0.0070212353 -0.014119194 -0.043396883 0.07851787
000350 c2 9b 21 be 3f 68 7f be 51 1a f1 bc 56 7f ea bc
       -0.15782073 -0.2494211 -0.029431494 -0.028625172
000360 26 79 f2 3d 5c 0b aa 3d ea dd 29 bb 58 d2 37 bd
       0.118395135 0.08302948 -0.0025919625 -0.044878334
000370 6f 18 59 be 03 59 a0 3e 06 fc 69 3d d6 aa ce 3c
       -0.21200727 0.3131791 0.057125114 0.025227945
000380 e5 58 24 3d 68 e5 1d 3e 8b 05 32 bd 03 70 8a 39
       0.04012384 0.15419543 -0.043462317 0.00026404866
000390 08 45 a0 be f4 37 4a bd 72 d7 06 3e b7 95 ef 3c
       -0.31302667 -0.049369767 0.13168123 0.029246194
0003a0 91 36 fa 3d 58 a4 8d 3d fa 5b 55 3d 1f 5d 83 3c
       0.12217439 0.06916112 0.05208967 0.016035615
0003b0 fe 16 1f 3e 5c 9d f1 bd 3a b0 25 3d 97 44 7a bd
       0.15536115 -0.11797592 0.040451266 -0.06110057
0003c0 41 96 c3 bd 13 d6 8e 3d 05 b7 39 b9 89 30 e9 3b
       -0.09550143 0.06974425 -0.00017711155 0.0071163815
0003d0 d8 26 0f 3e 8c e9 db 3e 57 76 3c 3d fa 36 8a bc
       0.13979661 0.4295162 0.046011295 -0.016871918
0003e0 19 8a e4 bb b8 d2 85 3e 38 10 a2 bc 9c f0 f7 3d
       -0.0069744703 0.26137328 -0.019783124 0.121064395
0003f0 e1 5c 7d bc 07 9c 30 bd 9b fe 26 3d 81 62 bf bb
       -0.015464039 -0.04311755 0.040770154 -0.0058406

fc1.bias f4 [64]
000000 e1 65 03 be 71 32 23 3e 7c 95 43 3d ff 16 cb be
       -0.12831832 0.1593721 0.04774998 -0.39665982
000010 e5 67 55 3e 80 06 5c 3e 45 27 76 be 3d 6b 7a be
       0.20840414 0.21486855 -0.24038418 -0.2445497
000020 b6 1c 0d 3e 6f 1e 9e 3e c3 84 0d be 03 b1 f0 3e
       0.13780484 0.30882594 -0.13820176 0.4701005
000030 c4 b0 3f be af 38 1f 3d 44 7f d6 bd 6e e8 e3 bd
       -0.18719774 0.038872417 -0.10473493 -0.11128317
000040 91 32 6c 3e b4 42 1f bd e3 27 ec bd 15 76 e3 3d
       0.23066165 -0.038881972 -0.11531045 0.11106507
000050 b7 01 d2 3e 77 6e ff 3d b1 73 ff bd af f9 69 bc
       0.41016933 0.12472241 -0.12473238 -0.014280721
000060 47 cd 44 be 6a ab ac 3e e0 3d 88 be cc 2c ac 3e
       -0.19218932 0.3372453 -0.26609707 0.33627927
000070 21 ab c1 3e 27 26 f2 3c fa 4b 65 3e 17 a5 0b bd
       0.37825873 0.029559208 0.22392264 -0.03409299
000080 74 e2 ba 3e 66 63 df bd 13 cc 8b be 00 ae 92 3d
       0.36500895 -0.109076306 -0.27304134 0.07162094
000090 e4 8c 0f 3e 68 c5 07 3f e3 ea 1c be bc b8 9a 3e
       0.1401859 0.53035593 -0.15323977 0.30219066
0000a0 9d 04 2c be 9f 17 e1 bc dc 96 99 3e 7f a3 00 bd
       -0.16798635 -0.027477084 0.2999791 -0.031405922
0000b0 e9 86 2a 3c 06 0a d2 bd 65 a6 1f 3f 44 3e c7 bd
       0.010408142 -0.10255818 0.6236327 -0.09728673
0000c0 0a 7c 1f bd a3 29 97 3d 10 54 a3 bd 8e ca a2 be
       -0.038936652 0.073809884 -0.07975018 -0.31795162
0000d0 ce 86 0f 3c 87 17 85 be 0a ab 9f 3d 6d b0 cc 3d
       0.008760167 -0.25994512 0.07796295 0.09994588
0000e0 b8 bc 9d 3e 3e 45 69 3e 99 c1 19 3e 52 67 86 be
       0.30808043 0.2278032 0.15015258 -0.26250702
0000f0 38 5f 84 be c5 f2 dc 3c ca 3c 27 be 51 82 35 3e
       -0.25853896 0.02697123 -0.16331783 0.17725493

fc2.weight f4 [32, 64]
000000 be 12 ae bd 31 22 0c be c5 2d 13 be ac 95 d5 be
       -0.084996685 -0.13684918 -0.14372928 -0.41715753
000010 ea a0 ae bc f2 ba 9c 3d fb eb 01 be 03 c1 64 be
       -0.021316964 0.076528445 -0.12687676 -0.22339253
000020 64 93 03 bf 63 8d 0b bd 0e 0c a6 be d4 72 db 3c
       -0.51396775 -0.034070384 -0.32431072 0.026788153
000030 a4 2e 23 bf 3f 6d b7 3e 91 24 18 be e4 8b f2 be
       -0.6374304 0.35825536 -0.14857699 -0.47372353
000040 83 83 03 bf f7 63 46 3e 74 43 aa 3c be 5a dd be
       -0.51372546 0.19374071 0.020784117 -0.43233293
000050 46 66 b7 bd 10 e2 88 be 5b 05 ad bc 8c 6b b8 3d
       -0.08955054 -0.26734972 -0.021120718 0.09004888
000060 9c d8 7f 3d 56 82 cf bd cd f0 b4 be 72 a8 b7 3e
       0.062462434 -0.101322815 -0.35339966 0.358707
000070 84 97 82 3e e3 03 d4 3c 5c 07 6d bd 9f cd 95 bc
       0.25506222 0.02588076 -0.057868347 -0.018286524
000080 cc 13 40 3e 92 c4 32 bf 95 a8 d5 bd 34 08 e5 bd
       0.18757552 -0.6983119 -0.10432545 -0.11183205
000090 5e da 18 3d 86 a5 bb 3d 04 ce 27 3e 27 38 aa 3c
       0.037317626 0.091624305 0.16387182 0.020778729
0000a0 46 9e d7 3c 2e 5b 15 3c 69 b7 5b 3e 3e 2b 58 3e
       0.026320588 0.009115977 0.21456684 0.21110246
0000b0 fc fc 84 bd 63 c8 14 bf e0 f4 3b 3e c1 e7 cd bd
       -0.064935654 -0.58118266 0.18355131 -0.10053969
0000c0 79 ef 40 3e 74 10 47 3e ef bd 8c be f9 23 ec bd
       0.18841352 0.1943987 -0.27488658 -0.11530299
0000d0 15 44 32 3d c7 1b 89 be 99 42 7b 3d 6f 12 a5 3e
       0.04352196 -0.26779005 0.06134281 0.32240626
0000e0 f1 38 9b be a2 0a cd 3e a1 3e 7d be a9 84 14 bd
       -0.3031688 0.40047175 -0.24730922 -0.036259327
0000f0 3f 17 ca be ce 8e 8f 3e 77 55 3a bd 10 28 b7 be
       -0.3947086 0.2803864 -0.045491662 -0.35772753
000100 45 ca e0 bd ce 35 0a bd 02 4c 08 be d9 52 ad 3e
       -0.1097608 -0.03374272 -0.13310245 0.3385227
000110 21 34 64 bd b8 d0 f1 bd fe ff 89 3d c8 dc 83 be
       -0.055713776 -0.11807388 0.0673828 -0.2575438
000120 dc 40 06 3e 42 cb 68 bd d3 43 c9 3e cc af 1f 3d
       0.1311068 -0.056834467 0.39309558 0.038986012
000130 b8 ad d6 3d 3f 93 97 bd bc 93 b4 be a7 3d 7b 3d
       0.10482353 -0.07401132 -0.35268962 0.061338093
000140 70 11 ec bd 17 53 b4 bc 95 51 60 be 2d 93 c5 bd
       -0.115267634 -0.022012277 -0.21906121 -0.09647212
000150 8d 75 30 3e 71 74 a0 bd 41 53 d2 3d bc 83 24 be
       0.17232342 -0.078347094 0.10269786 -0.16065878
000160 c9 e2 b9 bd a1 da 4a bd 7d 9a 08 be bb 98 ba bd
       -0.09076459 -0.049524907 -0.13340183 -0.09111162
000170 b0 fa 9f be f9 60 6b be 43 ff a1 3e df 7d 76 3e
       -0.31245947 -0.22986211 0.31640062 0.24071454
000180 48 27 e8 be 6e 79 97 3d 53 71 a1 3e b3 68 fb 3e
       -0.4534247 0.07396208 0.31531772 0.49103317
000190 05 1e 9a be 4f 20 97 be 49 e8 ba bd 93 c0 2e 3e
       -0.30101028 -0.29516837 -0.09126336 0.17065649
0001a0 80 aa d2 bb 69 ce 70 be a7 dd 09 3e 74 1f c9 bd
       -0.0064290166 -0.23516239 0.1346346 -0.09820452
0001b0 13 48 16 3e 6c 4c 73 3e b9 dd 87 be 33 ee 40 3e
       0.14675932 0.23759621 -0.26536348 0.18840866
0001c0 75 a9 3b be 5e 17 06 be 34 b1 f0 bc 9b 3f bf 3e
       -0.18326361 -0.13094851 -0.029381372 0.37353215
0001d0 4c fa 08 3e 15 bc 39 be 7d 24 ed 3e 22 74 e0 3d
       0.1337673 -0.18138154 0.463169 0.109596506
0001e0 28 e4 ab 3e fa be 16 bf 3d 95 86 3d bc f7 f6 3e
       0.33572507 -0.5888516 0.06571434 0.4823588
0001f0 55 95 40 bd 7b 55 09 be b4 7e 1a 3d f2 1b aa bd
       -0.047017414 -0.13411514 0.03771849 -0.083061114
000200 28 ad 3b bf 98 93 fc 3d 79 82 6c be 4d 9d 58 bd
       -0.7331109 0.12332839 -0.23096646 -0.05288439
000210 7f 9c 41 be 7d 37 89 3d de e3 e5 3d b5 41 94 be
       -0.18907355 0.06700037 0.11225103 -0.2895638
000220 c9 36 07 3e 87 b9 84 be 68 f0 a5 3e 82 79 08 3e
       0.13204493 -0.25922796 0.32409978 0.13327602
000230 d0 b1 58 3d fc 10 3e 3e 2a e5 81 bd af f9 72 3d
       0.05290395 0.18561167 -0.06342538 0.059320148
000240 5e b0 2a bd 67 05 f9 be 87 0d 52 ba 36 81 94 bd
       -0.041672103 -0.48636934 -0.000801288 -0.072512075
000250 d4 c0 94 3d 64 1f 08 be 71 3c 83 3e fb 82 dc 3e
       0.072633415 -0.13293225 0.2563205 0.4306868
000260 ee 41 97 bd ed ad 4d 3e d7 a8 79 3d d4 24 be 3d
       -0.07385622 0.20085879 0.060952034 0.09284368
000270 d0 22 23 be 86 87 34 be 43 0e cd 3d 9d b0 3e 3e
       -0.15931249 -0.17629823 0.10012486 0.1862206
000280 45 7b db bd f2 7c 68 3e 2a 19 e3 3e 7b 0e a6 3e
       -0.10716871 0.22703913 0.44355136 0.32432923
000290 ef 51 df be 0a c1 9b bc c9 61 94 bb 98 e6 fc bc
       -0.43617198 -0.019012947 -0.0045282585 -0.030871674
0002a0 f2 bd 8f be 39 ff cb be e3 27 7f 3c e1 66 ad be
       -0.28074604 -0.39843157 0.015573475 -0.33867553
0002b0 00 89 94 3e 13 32 6d 3d eb c1 53 be 60 67 1e bf
       0.29010773 0.057909083 -0.20679443 -0.6187649
0002c0 67 bb cf bd 71 ed d1 be 9d c2 6a 3d 4f a1 4b 3e
       -0.10143166 -0.41001466 0.057314504 0.19885753
0002d0 2d 10 93 3d b2 ed c9 be 12 06 21 bd d3 59 85 bd
       0.0718082 -0.3943916 -0.03931243 -0.06511273
0002e0 be f2 c4 3d d8 5b 5c be bc d8 4d 3e 1e 6f a0 3b
       0.09616612 -0.2151941 0.20102209 0.0048960587
0002f0 cf de 6f 3e 3c 3f 99 be 90 cc 23 bc f4 ae c3 3c
       0.23424838 -0.29931056 -0.009997502 0.023887135
000300 c9 11 87 3e 44 aa 69 3d cf 17 21 3d da 6c 08 bb
       0.26380756 0.057047144 0.039329346 -0.0020816834
000310 51 5f 47 bd a4 96 56 3d ce 52 fc 3b 5c c3 44 3e
       -0.048674885 0.052389756 0.007700301 0.19215149
000320 6d 89 c7 bb cb 03 85 3e 08 4e c1 3d 47 09 b8 be
       -0.0060893805 0.25979456 0.094387114 -0.35944578
000330 fa 6f 27 3d 55 a3 db be b3 b2 1b 3d 56 eb 11 be
       0.040878274 -0.4289805 0.038012218 -0.1424993
000340 d6 8c 67 be 12 00 5c 3e 43 4c 78 3d b3 2f 01 3d
       -0.22612318 0.21484402 0.060619604 0.03153963
000350 b8 29 93 be 43 eb 06 be ac 68 67 be 16 fc 11 bf
       -0.28742766 -0.13175683 -0.22598523 -0.5702528
000360 a8 a0 82 3c f1 19 f2 3c 0a 5d 04 bd cc 7c 95 be
       0.015945747 0.029553385 -0.03231529 -0.29196775
000370 42 cb 8f bd b1 bb 43 be 34 63 06 bf c9 6b cb 3d
       -0.0702119 -0.19114567 -0.5249512 0.09932668
000380 4e 2c f0 be a1 a7 de bd f1 b9 0c be 48 e3 a3 be
       -0.46908802 -0.108718164 -0.13742806 -0.3200934
000390 f8 da 41 3d 50 b4 99 be c4 7a 9c be 66 66 1a 3e
       0.047327965 -0.3002038 -0.30562413 0.15078124
0003a0 66 78 b0 3e 50 45 eb bc 65 91 ec be db 04 15 be
       0.34466857 -0.028719574 -0.46204677 -0.14552633
0003b0 c1 e9 98 bd 1e a3 8f 3d 34 22 31 be d2 3f 82 3e
       -0.0746646 0.07013534 -0.17298204 0.25439316
0003c0 f3 1d b4 3e b5 73 95 bc f5 66 a1 be 49 8e bf 3d
       0.351791 -0.01824365 -0.31523862 0.093533106
0003d0 3f 69 3f be a0 37 82 be 2a 1c 0d 3a 6d 8d 9a 3b
       -0.18692492 -0.25433064 0.000538292 0.0047165663
0003e0 16 d4 e4 bd f8 b3 ca be e8 22 9f bd 15 93 92 be
       -0.11173265 -0.3959043 -0.0777033 -0.2862784
0003f0 3f 48 87 be 36 4c a4 be e0 ac 59 3d cc 9c 7a 3e
       -0.26422307 -0.32089394 0.053143382 0.24473876

fc2.bias f4 [32]
000000 01 5a 71 3e 29 54 5b 3d 93 ce 87 3b ce 39 fd bb
       0.2356949 0.05354706 0.0041444986 -0.007727838
000010 8f a0 41 bd 35 c3 73 3d ae 6e 61 3b b9 b1 12 3e
       -0.04727226 0.059512336 0.0034398246 0.14325608
000020 0d 54 ad 3e a5 66 e0 bd 93 13 30 3d 3e 99 87 be
       0.33853188 -0.10957078 0.042987417 -0.26484102
000030 1b fa 6c be 51 18 be bd ed b0 f7 3c 39 24 b6 3d
       -0.23142283 -0.09281982 0.030235732 0.08893628
000040 7c 36 84 3e 74 b5 4d be 66 61 77 3d 8a eb 50 3d
       0.25822818 -0.2008875 0.06039562 0.051005878
000050 25 90 5f bd 66 8a 91 3e ac 9d 0a 3e f8 a5 5f bd
       -0.054580826 0.28425902 0.1353671 -0.05460164
000060 b4 0f ac 3b c4 4e a1 3d be 5a a3 3c bb d9 48 be
       0.0052508954 0.078763515 0.01994073 -0.19614308
000070 a0 91 e7 3e 5b 14 1a bd 07 ee 25 3e 34 4c a6 bd
       0.4522829 -0.03761707 0.16204081 -0.08120003

fc3.weight f4 [4, 32]
000000 17 f2 2e 3e f4 b6 08 3d d7 56 04 bf e2 c5 e8 3d
       0.17084537 0.033377603 -0.5169501 0.11365868
000010 6a 1e c2 be 99 55 75 3c 5f 29 82 bc 6c d5 cc be
       -0.3791383 0.014974021 -0.015888868 -0.40006578
000020 00 ea c6 bd 1a f4 22 be d3 e1 6d 3c 7d 4a 66 be
       -0.09712601 -0.1591343 0.014519173 -0.22489353
000030 bb 5a 69 be 7c 2a ba 3e 21 5a 73 be b1 c3 17 3e
       -0.22788517 0.36360538 -0.2376485 0.14820744
000040 b3 9e 01 3e 92 96 bb be a3 87 68 3f 06 92 83 be
       0.12658195 -0.36638314 0.90831965 -0.25697345
000050 66 29 d9 be 24 84 62 bf ce b2 50 3e 8f ed 42 3d
       -0.42414397 -0.8848288 0.20380709 0.047589835
000060 a8 df 3d 3d 8c 51 25 bf d2 1e 61 3d c7 43 99 be
       0.046355873 -0.64577556 0.054961033 -0.29934523
000070 a1 17 b8 3e 14 ed 23 be e7 90 75 bc 96 8d 17 3f
       0.35955527 -0.16008407 -0.014988161 0.5920042
000080 f1 4b be be ac 6f 6c 3f c8 6d 3f 3d 8c 68 b1 bd
       -0.37167314 0.923579 0.046735555 -0.08662519
000090 5c 07 4b bd b1 cb 50 bf 83 26 25 3e e4 4d d0 3e
       -0.049567565 -0.8156081 0.16127972 0.40684426
0000a0 bd d7 ea 3e fa c1 2c be 43 ea 64 bf fc b2 62 3e
       0.4586772 -0.16870871 -0.89419955 0.2213859
0000b0 5b a8 7a bf cd f3 ae be 1b 7a 2d 3e 46 d9 b6 bd
       -0.9791314 -0.3417038 0.16941111 -0.0892816
0000c0 82 1f 4d 3e de 85 38 bf bf 3a 65 be a0 a7 b9 bd
       0.2003155 -0.72079265 -0.22385691 -0.09065175
0000d0 d3 01 bd be 59 07 94 3e 0b 34 02 3f 1b 4e f5 3d
       -0.36915454 0.28911856 0.5086066 0.11977788
0000e0 53 37 be bd d0 e5 6a 3d c2 19 95 3e b0 97 6f be
       -0.09287896 0.057348073 0.29121214 -0.23397708
0000f0 f1 b1 8d be f3 40 80 3f f4 dc ab 3f c3 1d 74 be
       -0.2767482 1.0019821 1.3426805 -0.23839478
000100 97 18 9e 3e 07 a4 01 be 7b b5 02 3e 1e 40 15 be
       0.30878136 -0.12660228 0.12764542 -0.1457524
000110 d2 60 2e 3e 19 7d b4 3d 88 00 88 3d 80 87 19 3e
       0.17029122 0.08812923 0.06640726 0.14993095
000120 26 9a ff 3c 1d b8 0b bf 0a 44 07 3e 08 b7 0e be
       0.031201433 -0.5457781 0.13209549 -0.13937008
000130 87 f6 ad be d6 12 c7 3e 60 d0 41 bb 35 24 26 3e
       -0.33977148 0.38881558 -0.0029573664 0.1622475
000140 18 e2 31 bd 81 16 33 3e ac 54 2f bf f3 ec 89 3e
       -0.04342851 0.17489053 -0.68488574 0.2693859
000150 05 90 fe bd bf c3 b1 bd 45 00 72 be 1e fa cf 3d
       -0.12429813 -0.08679914 -0.23632915 0.10155128
000160 84 ff 87 3e 26 63 7b 3e 5c c7 0f bf b1 ab 61 bf
       0.2656213 0.24549541 -0.56163573 -0.88152605
000170 48 fc df 3e c9 9e 43 3e 05 48 ca be 48 75 eb 3d
       0.43747163 0.1910354 -0.39508072 0.11496979
000180 73 52 87 bd 4e da 38 3e a9 29 14 3c 8b 77 eb 3e
       -0.06607523 0.18052027 0.009043136 0.45989642
000190 8a e4 30 bd 86 07 27 3f 2a db 35 bf 12 29 1d 3f
       -0.0431867 0.65245855 -0.7103754 0.61390793
0001a0 bc 29 5b be 9e 68 9d 3e c7 74 18 be 32 be 39 3f
       -0.21402639 0.3074388 -0.14888297 0.7255584
0001b0 a1 7b 1a 3f 8e ee 3b 3b 74 02 5b bd 00 71 80 3c
       0.6034489 0.0028676125 -0.053469136 0.015678883
0001c0 c9 e0 53 bf a6 41 b6 3e 02 b9 ae bd 19 79 0a be
       -0.8276487 0.3559696 -0.08531381 -0.13522758
0001d0 86 62 3c bf 16 a4 3a bf 49 5c 09 3e 58 c0 15 3f
       -0.73587835 -0.72906625 0.1341411 0.5849662
0001e0 5a ee a0 be e1 bf 47 bf f9 ac aa 3e 11 27 66 3f
       -0.31431848 -0.7802716 0.33335093 0.8990336
0001f0 2b cc a7 be 9c 8d 44 3f d1 ca 19 3d 7e 37 34 3f
       -0.32772955 0.7677858 0.037546936 0.70397174

fc3.bias f4 [4]
000000 e9 52 81 3d 70 95 13 bb 6a c4 39 bc 03 93 ad be
       0.06314642 -0.0022519492 -0.011338333 -0.33901224
