tennis_checkpoint_critic_1score.pth (torch_old, 22507 bytes, 5 tensors)

fcs1.weight f4 [64, 48]
000000 a1 a0 be 3c fc 47 3d bc a5 28 8d 3a bd 4e df 3c
       0.023269953 -0.011552807 0.0010769559 0.027259225
000010 e7 e5 b1 bc fb b6 c0 bc a5 28 8d 3a bd 4e df 3c
       -0.021716071 -0.023524752 0.0010769559 0.027259225
000020 71 67 20 3d f8 5a 52 bb 5d 02 2b 3a cd 0f 78 3d
       0.03916115 -0.0032097679 0.00065234845 0.060561944
000030 94 9c e3 bb 96 97 28 bd 5d 02 2b 3a cd 0f 78 3d
       -0.006946156 -0.04116019 0.00065234845 0.060561944
000040 00 b7 1c 3d 10 ad c2 3a 45 02 d5 bc f2 17 93 3c
       0.03826046 0.0014852602 -0.026002059 0.017955754
000050 3c 16 4e bc 6e 4d 17 bd 45 02 d5 bc f2 17 93 3c
       -0.012578543 -0.036939077 -0.026002059 0.017955754
000060 79 eb ef 3b d4 40 94 38 c0 46 92 bb 8a ad 1b 3c
       0.0073217717 7.069265e-05 -0.0044640005 0.009501824
000070 e7 e5 b1 3c fb b6 c0 bc c0 46 92 bb 8a ad 1b 3c
       0.021716071 -0.023524752 -0.0044640005 0.009501824
000080 40 f7 ad 3c 6f b0 be 3b 92 88 1d 3b 41 d5 5f 3c
       0.021236062 0.0058193724 0.00240377 0.013661684
000090 94 9c e3 3b 96 97 28 bd 92 88 1d 3b 41 d5 5f 3c
       0.006946156 -0.04116019 0.00240377 0.013661684
0000a0 e6 f4 b8 3c cf 79 d5 3b 75 f0 65 39 84 3e 69 3b
       0.022577714 0.006514765 0.00021928719 0.003559024
0000b0 3c 16 4e 3c 6e 4d 17 bd 75 f0 65 39 84 3e 69 3b
       0.012578543 -0.036939077 0.00021928719 0.003559024
0000c0 75 e7 58 3c f8 8d fe bc 87 ff 17 bb ef b1 fa 39
       0.013238777 -0.031073555 -0.0023193078 0.00047816287
0000d0 b6 20 51 bd 6e f2 31 bd da 41 27 bb ef b1 fa 39
       -0.051056586 -0.04344409 -0.0025521428 0.00047816287
0000e0 a9 7e 82 3b dd 95 28 bc f3 4b 83 3a be 59 06 3b
       0.003982384 -0.010289636 0.0010017141 0.0020500268
0000f0 29 0c 5e bc 2a f0 9d bd c8 a6 49 3a be 59 06 3b
       -0.013552704 -0.07711823 0.0007692394 0.0020500268
000100 33 6c 14 bc 0d c5 03 ba ef a5 a8 3b 7a e7 47 3c
       -0.009059 -0.0005026616 0.005146734 0.012201184
000110 a1 c6 ab 3c c1 bc 5d be 9a 0d b0 3b 7a e7 47 3c
       0.020968737 -0.21654035 0.005372715 0.012201184
000120 a3 68 79 bd 4b 0c 59 3c fa a1 cd bb 17 52 89 bb
       -0.060890805 0.01324756 -0.0062754126 -0.004190694
000130 e8 26 51 3d 6e f2 31 bd 44 9d c9 bb 17 52 89 bb
       0.051062495 -0.04344409 -0.0061527807 -0.004190694
000140 8a 98 bd bd bf 77 14 3c d4 31 a1 bb 19 d9 45 3b
       -0.0925761 0.009061753 -0.00491927 0.0030189215
000150 96 f0 5d 3c 2a f0 9d bd 4f ab a5 bb 19 d9 45 3b
       0.01354613 -0.07711823 -0.005055822 0.0030189215
000160 a3 7a f8 bd d4 4a 8b 3b cc c0 3a bc fb 99 e1 3b
       -0.12132766 0.0042508636 -0.011398505 0.006884811
000170 79 e5 ab bc c1 bc 5d be 6b 75 39 bc fb 99 e1 3b
       -0.020983445 -0.21654035 -0.0113194985 0.006884811
000180 cf d4 d4 bb a7 7b 0a 3c 18 a8 e4 3a 2b 95 2d 3c
       -0.0064950953 0.008452333 0.0017445115 0.010594646
000190 51 a4 38 3c 16 0d 49 bd 18 a8 e4 3a 2b 95 2d 3c
       0.011269645 -0.049084745 0.0017445115 0.010594646
0001a0 63 13 bb 3c a5 54 3e 3c 1d 8d c3 ba 64 43 bb 3a
       0.022836393 0.0116168605 -0.0014919374 0.0014287052
0001b0 fe b0 68 3d f5 39 af bd 1d 8d c3 ba 64 43 bb 3a
       0.056809418 -0.08555976 -0.0014919374 0.0014287052
0001c0 f1 bd b1 3c 0e c3 15 3c 2b 9c b2 ba b3 99 0e bb
       0.021697016 0.009140743 -0.0013626864 -0.0021759092
0001d0 06 c1 50 bd 89 e6 1d bd 2b 9c b2 ba b3 99 0e bb
       -0.05096533 -0.038549934 -0.0013626864 -0.0021759092
0001e0 77 80 38 3c 71 16 6d 3c 2d 3a 46 bb 65 e3 b2 3d
       0.011261097 0.0144706825 -0.0030247078 0.08734778
0001f0 51 a4 38 bc 16 0d 49 bd 2d 3a 46 bb 65 e3 b2 3d
       -0.011269645 -0.049084745 -0.0030247078 0.08734778
000200 77 e9 2f 3c 9c fe ef 3c 25 c3 13 3b be 22 59 3d
       0.010736815 0.029296212 0.0022546735 0.05301165
000210 fe b0 68 bd f5 39 af bd 25 c3 13 3b be 22 59 3d
       -0.056809418 -0.08555976 0.0022546735 0.05301165
000220 ad 0c c1 ba 41 ad ac 3c 74 ab 46 3c b9 03 14 be
       -0.0014728509 0.021078708 0.012125839 -0.14454545
000230 06 c1 50 3d 89 e6 1d bd 74 ab 46 3c b9 03 14 be
       0.05096533 -0.038549934 0.012125839 -0.14454545
000240 19 0f 90 3d a3 9a 49 bd 04 bc 1e 3c 86 ed 61 3d
       0.0703413 -0.04921974 0.009688381 0.05515816
000250 60 1e c1 bc 1a 6f 12 bd 04 bc 1e 3c 86 ed 61 3d
       -0.023574054 -0.035750486 0.009688381 0.05515816
000260 a3 a6 b2 3d 25 37 2b bd 07 43 4a 3c ad d8 ab 3d
       0.0872319 -0.041800637 0.012345082 0.08390937
000270 13 f4 a6 bc f6 c7 13 bd 07 43 4a 3c ad d8 ab 3d
       -0.020380056 -0.03607937 0.012345082 0.08390937
000280 88 b1 d7 3d 10 49 27 bd 76 6d ba 3c 94 ca 6b 3d
       0.10531908 -0.040841162 0.022757273 0.05756624
000290 8f 76 f9 bc 69 db df bb 76 6d ba 3c 94 ca 6b 3d
       -0.030452041 -0.0068315757 0.022757273 0.05756624
0002a0 3f 5b 8e bc a4 7e d0 3c d1 e4 90 3a c6 99 bc 3b
       -0.017377494 0.025451012 0.0011054521 0.005755636
0002b0 60 1e c1 3c 1a 6f 12 bd d1 e4 90 3a c6 99 bc 3b
       0.023574054 -0.035750486 0.0011054521 0.005755636
0002c0 dc 8d 5f bc 6a 8f c7 3c 50 5f 0e 3a 63 de 2f bb
       -0.013644662 0.024360377 0.0005431073 -0.0026835434
0002d0 13 f4 a6 3c f6 c7 13 bd 50 5f 0e 3a 63 de 2f bb
       0.020380056 -0.03607937 0.0005431073 -0.0026835434
0002e0 b4 9a 08 bb 33 b7 c3 3c b9 cc 8a bc 5a a3 83 bc
       -0.0020844163 0.023891067 -0.016943322 -0.016069103
0002f0 8f 76 f9 3c 69 db df bb b9 cc 8a bc 5a a3 83 bc
       0.030452041 -0.0068315757 -0.016943322 -0.016069103
000300 de 82 72 3c 63 90 2f bb 89 bd 72 bc 50 76 de b9
       0.014801709 -0.0026788942 -0.0148156965 -0.0004243129
000310 35 76 49 ba 4b 50 01 bc 89 bd 72 bc 50 76 de b9
       -0.0007685156 -0.0078926785 -0.0148156965 -0.0004243129
000320 3f cb 87 3c 71 36 93 bb 0e d4 88 3b fe b6 b7 3a
       0.016576407 -0.004492574 0.0041756695 0.0014016328
000330 88 83 cf 38 dd 5a 0c bc 0e d4 88 3b fe b6 b7 3a
       9.895029e-05 -0.008566585 0.0041756695 0.0014016328
000340 e8 05 a6 3c 5d c3 5b bb 1c 11 ef 3b f6 e1 00 3b
       0.020266488 -0.0033533194 0.007295741 0.0019665933
000350 00 8a 81 b7 3c d8 17 bc 1c 11 ef 3b f6 e1 00 3b
       -1.544226e-05 -0.009267863 0.007295741 0.0019665933
000360 74 59 3b 3c 98 32 81 3a 5e 76 b0 bb 08 a5 82 3a
       0.0114349015 0.0009856997 -0.005385204 0.0009967396
000370 35 76 49 3a 4b 50 01 bc 5e 76 b0 bb 08 a5 82 3a
       0.0007685156 -0.0078926785 -0.005385204 0.0009967396
000380 9b 5e 44 3c 84 ed 15 3b 6b 71 22 bc b7 fe 4c bb
       0.011985446 0.0022877166 -0.009914736 -0.0031279752
000390 88 83 cf b8 dd 5a 0c bc 6b 71 22 bc b7 fe 4c bb
       -9.895029e-05 -0.008566585 -0.009914736 -0.0031279752
0003a0 e0 2a 8d 3c 24 7e 0a 3b 31 00 80 3b 6a f6 df bb
       0.017232358 0.0021132315 0.003906273 -0.006834795
0003b0 00 8a 81 37 3c d8 17 bc 31 00 80 3b 6a f6 df bb
       1.544226e-05 -0.009267863 0.003906273 -0.006834795
0003c0 e7 a7 66 3d 3d 0d 98 3c e4 78 e6 37 27 47 11 bc
       0.056312468 0.018561 2.747443e-05 -0.008867062
0003d0 16 28 14 be e8 b6 ac bc 27 5a 3f bb 27 47 11 bc
       -0.14468417 -0.02108331 -0.0029198022 -0.008867062
0003e0 e4 2d 09 3d 04 d4 4e 3c 5f 7c 2a ba 97 8e 08 3a
       0.03349103 0.012623791 -0.0006503518 0.0005209236
0003f0 ed 63 0e be 06 7a ba bb f1 b4 22 ba 97 8e 08 3a
       -0.13905306 -0.005690816 -0.0006206772 0.0005209236

fcs1.bias f4 [64]
000000 dd 70 84 3a fd d8 dc b9 e2 93 2e bc 34 f6 b3 ba
       0.0010104437 -0.0004212334 -0.010655375 -0.001372999
000010 2a 30 3c ba e1 f3 92 bc 75 e5 ff ba 1b 5d 97 bc
       -0.0007178808 -0.017938556 -0.001952334 -0.018477013
000020 61 f0 32 bb 37 4a d3 bb 74 07 05 bc 3f bb 99 ba
       -0.0027303922 -0.006448056 -0.008119453 -0.0011728777
000030 82 2f 75 bb ac 0f 54 bc 90 28 34 bb cb 0a a4 3a
       -0.003741235 -0.01294319 -0.0027489997 0.0012515424
000040 13 ac 29 3b c2 dd 93 ba f2 07 e3 bb 51 af d0 ba
       0.0025889918 -0.0011281299 -0.0069284374 -0.0015921389
000050 f5 90 4a 3b 1c 29 6b b8 61 ba 8e ba 45 a1 ac bb
       0.0030909155 -5.6066652e-05 -0.0010889285 -0.0052682483
000060 20 f4 d1 b5 a4 19 9d bc f2 1a c6 bb da f4 d2 bc
       -1.5642763e-06 -0.019177265 -0.0060456926 -0.02575152
000070 52 09 b8 b4 a5 c2 a6 3c 52 8d 82 3c 5c 42 84 bc
       -3.4279452e-07 0.020356486 0.015936527 -0.016144924
000080 a9 be 0b bb 03 8d 16 bb f2 95 21 bb 15 0a d3 3d
       -0.002132336 -0.0022972233 -0.0024656025 0.10304657
000090 2c 1a 29 bb 7e 84 b4 3a d6 82 c7 ba 4a b4 c9 ba
       -0.0025802953 0.0013772396 -0.0015221487 -0.0015388813
0000a0 15 1a e4 bc 54 82 dc b8 43 78 1a bd 87 af 85 bb
       -0.027844468 -0.00010514693 -0.037712347 -0.0040797624
0000b0 2e 22 8e bb 33 1b 26 bc 4e 60 25 39 77 52 a7 bb
       -0.0043375706 -0.010138321 0.00015771503 -0.005106266
0000c0 05 ae a7 ba 78 e0 b6 3b 10 44 0c bc c1 3a d9 ba
       -0.0012792951 0.005580958 -0.008561149 -0.0016573296
0000d0 42 ea be bb 44 2d 62 bb 9e 2a 05 bb a3 8f d3 ba
       -0.0058262656 -0.0034511844 -0.0020319591 -0.001614083
0000e0 b6 bb ef 3b 39 27 e7 bc 3f cc 02 3b f5 32 29 3b
       0.007316078 -0.028216945 0.0019958166 0.0025817726
0000f0 e4 e7 9e bb b8 a6 04 bd d8 ef 24 bc 83 a3 c2 ba
       -0.004849421 -0.032385558 -0.010066949 -0.0014849756

fc2.weight f4 [32, 68]
000000 a8 cc c1 bc ef 35 be bc ba ab 86 bd 0a bb 01 bc
       -0.023657158 -0.023219077 -0.06575723 -0.007918129
000010 89 ce 59 bc c9 15 28 3d e2 51 ac 3c 1b a9 58 bc
       -0.013293871 0.0410364 0.021035139 -0.013223912
000020 fd 1f 76 bc dc d1 d3 bb db 72 4d bd 15 91 93 ba
       -0.015022275 -0.006464226 -0.050158363 -0.0011258448
000030 4e 86 83 3c b8 6a df bc 89 a9 91 3d eb 2a bb 3a
       0.016055252 -0.027272567 0.071124144 0.0014279758
000040 4f 77 5a 3d 09 87 4d ba 3f d1 ab 3c 16 d8 4a 3b
       0.053336438 -0.0007840251 0.0209738 0.003095155
000050 08 4a 3a bd d5 29 c6 ba e9 1c b1 3a dd 50 ca bb
       -0.045480758 -0.0015118668 0.0013512644 -0.0061741904
000060 cc c3 8f 3a 9e 2f 74 3d 98 ab 3e bb 1f 0e e1 bc
       0.0010968386 0.059615724 -0.0029093977 -0.027472554
000070 94 ce 28 ba 94 dc 96 3d 81 08 70 bd 19 97 3d bc
       -0.0006439474 0.07366291 -0.05860186 -0.011571669
000080 31 97 c4 bc cb f7 9d bc 5f cb 4f bc b9 03 fb bd
       -0.023997875 -0.019283196 -0.012682765 -0.122565694
000090 3a 00 2c bc cd 9b 97 bc 12 9b 14 bd 31 c4 d6 bb
       -0.010498101 -0.018506909 -0.0362807 -0.0065541496
0000a0 d8 62 46 bd b2 b5 02 3c a2 34 a6 3c ad 0c a4 3b
       -0.04843411 0.00797789 0.02028877 0.005006394
0000b0 6d 40 a6 ba c9 7c 2a bd 82 6a 3c bd c4 e0 c4 bc
       -0.0012683995 -0.04162291 -0.04600001 -0.024032958
0000c0 50 8f aa 3d 1b 9b 9f bb a5 8b 20 3d 1a 5a fe bb
       0.08328116 -0.004870785 0.039195675 -0.007762206
0000d0 81 37 10 bd 4c c8 95 bc b7 1a 85 3c 70 fc 57 38
       -0.035209183 -0.018283986 0.01624809 5.1495095e-05
0000e0 7f 8d 5e bd 42 cc 2c 3c 4a 9f 34 bc b8 52 08 bd
       -0.05433416 0.010546746 -0.011024306 -0.03328201
0000f0 e0 06 57 bc fa 9b 75 3c 5d 84 c2 3c 95 1e 16 bd
       -0.013124198 0.014990801 0.023744756 -0.03665026
000100 12 a3 2f 3c 43 46 8c bb 19 fb af 3c 87 94 60 bc
       0.010720031 -0.004280837 0.021482037 -0.013707287
000110 32 ed c3 36 e3 c5 67 b8 00 0b ca 36 5a cf a7 b5
       5.839066e-06 -5.5258988e-05 6.0213497e-06 -1.2502817e-06
000120 98 da d3 36 f7 ec 56 b9 29 2a 07 b6 f3 df 9e b7
       6.3137377e-06 -0.00020496907 -2.0141108e-06 -1.8939352e-05
000130 bf 53 14 35 88 f5 39 b7 64 e3 76 35 1a f1 6c 2e
       5.5256163e-07 -1.10840265e-05 9.197304e-07 5.387433e-11
000140 4a 45 46 37 e0 6b 25 b4 8f 98 f4 b3 43 a3 2a b6
       1.1817852e-05 -1.5406067e-07 -1.1389886e-07 -2.5427005e-06
000150 0e 06 72 b5 58 91 97 ac d1 b5 11 b6 38 ed a5 b3
       -9.0160836e-07 -4.3078145e-12 -2.1712515e-06 -7.726561e-08
000160 57 b6 97 37 b0 9b 19 37 02 c8 74 af 0a b7 69 36
       1.8085511e-05 9.1557595e-06 -2.2262728e-10 3.4826248e-06
000170 fa e2 13 35 d0 9c 4b 16 50 07 81 b7 e8 90 ac 35
       5.509206e-07 1.6447691e-25 -1.5381404e-05 1.2857172e-06
000180 d6 37 27 34 f3 c0 44 b5 96 75 09 b4 be fe 34 36
       1.55734e-07 -7.329647e-07 -1.2801897e-07 2.697037e-06
000190 5d 76 a4 b6 3e d3 13 b5 86 f4 a8 35 cc 91 ac 37
       -4.90136e-06 -5.5069165e-07 1.2588141e-06 2.057189e-05
0001a0 a7 5c 40 b6 3d 23 0a 38 ce 71 ad 36 ec ac 63 b4
       -2.866416e-06 3.2934582e-05 5.1690504e-06 -2.1203931e-07
0001b0 8c 0f 18 b4 10 97 90 36 9d d2 eb b9 d4 44 8e b6
       -1.4161759e-07 4.3091204e-06 -0.00044979612 -4.2399424e-06
0001c0 78 dc 50 b7 38 3b 05 33 34 05 19 37 0b 09 7a 36
       -1.2449098e-05 3.1020335e-08 9.120722e-06 3.7258167e-06
0001d0 39 ec 53 39 fa 94 63 37 d1 74 59 8e 26 39 9f aa
       0.00020210528 1.3564941e-05 -2.680356e-30 -2.8283728e-13
0001e0 a5 15 87 37 f4 aa 79 b6 42 1e cb b6 9e 81 82 37
       1.6103333e-05 -3.72034e-06 -6.053394e-06 1.5557565e-05
0001f0 01 ea 45 b9 49 14 27 39 ec 5e 28 36 de 78 41 37
       -0.00018874557 0.00015933918 2.5089203e-06 1.1531838e-05
000200 50 26 09 b6 f5 a2 35 35 39 1e 3f b6 f8 b6 84 36
       -2.0436892e-06 6.766489e-07 -2.847881e-06 3.955207e-06
000210 0d 74 21 37 1e ca 8f 36 9d 53 23 36 ae 06 52 b7
       9.623368e-06 4.2852616e-06 2.4337562e-06 -1.2518531e-05
000220 f5 33 0c bd 49 4b b6 bb 08 b6 66 3c 30 47 56 3b
       -0.034229238 -0.005563174 0.014081486 0.003269624
000230 4b c7 81 3c ba ea 28 bc dc 5d 42 bc cb 42 4f 3c
       0.0158421 -0.010309869 -0.011863198 0.012650202
000240 c3 07 f6 ba 42 75 ab ba e5 08 aa bc 24 22 ff 38
       -0.0018770624 -0.001308121 -0.020756194 0.00012165707
000250 0a 9b 16 bd f0 a2 2a bd 57 3a a9 bd 2c 56 57 be
       -0.03676895 -0.041659296 -0.082630806 -0.21028966
000260 79 60 2d bc 8f 65 9f bb dd bf a5 bd 5b 1f 0a 3b
       -0.010582083 -0.0048644016 -0.08093236 0.0021075818
000270 c2 50 af 3c 85 f9 95 bc 93 9d 62 bb e1 41 f2 bb
       0.021400813 -0.018307457 -0.0034578785 -0.0073931073
000280 8e 5d 58 39 57 21 04 bd e5 78 0d 3c da 5f e4 bd
       0.00020634217 -0.032258358 0.0086347805 -0.11151095
000290 ce a3 78 ba 32 72 03 3d 74 95 9d 3d 5c 3f bd bc
       -0.0009484858 0.032091327 0.076945215 -0.023101501
0002a0 bf 5e 29 3c eb 07 8b 3b ef 4f 3c 3b 7c da 95 3d
       0.010337531 0.0042428873 0.0028734168 0.07317063
0002b0 e8 9d 01 3b 8f 53 a0 3b 2c 50 13 bc ad 03 26 3b
       0.0019777957 0.0048927735 -0.008991282 0.002533178
0002c0 9f 19 09 bd ba 94 09 bc dc 74 0f 3c 4e 64 18 bc
       -0.0334717 -0.008397276 0.008755889 -0.009301258
0002d0 d4 48 21 ba 7b 7a 11 bd 09 02 85 3c 92 ca 91 bc
       -0.0006152515 -0.035517197 0.016236322 -0.017796788
0002e0 7b 67 3a 3b 1d 6c 2f bc 10 1e 42 bd a4 74 7a 3b
       0.0028443027 -0.010706929 -0.04739195 0.0038216496
0002f0 da 37 a7 bc 3d 2c cb 3c cc 6d b3 3c 57 51 14 bc
       -0.020412374 0.024801368 0.021902941 -0.009052596
000300 c8 cd 1b bd a7 a5 5a 3d 10 8f 80 bc 55 05 e7 bc
       -0.038038045 0.053380635 -0.015693218 -0.028200785
000310 1a 4a ab b9 41 ee 09 3a 42 f9 8b bb 42 fb e1 3c
       -0.00032670872 0.0005261638 -0.004271657 0.02758563
000320 2c 65 7f bb fe 2d a5 3c 52 19 46 bc 8b 37 bd 3b
       -0.0038970215 0.020163532 -0.012090998 0.0057744435
000330 50 e1 d0 37 7c 08 7b ba 68 6b e8 b8 17 ee 3f b8
       2.4900452e-05 -0.00095761544 -0.00011082628 -4.5759687e-05
000340 21 87 60 37 c1 2d 67 bb fe 4c a4 b9 2a 27 c6 ba
       1.3382903e-05 -0.0035275074 -0.0003133788 -0.0015117873
000350 a8 e6 37 b9 de f9 e7 b6 5b 91 22 ba 3c 9f 02 28
       -0.00017538166 -6.913425e-06 -0.0006201469 7.250978e-15
000360 0b 93 bc b8 1e 94 7e b8 2e 2c 0a bb 89 1e c7 3a
       -8.9919275e-05 -6.0696264e-05 -0.0021083462 0.0015191595
000370 fb 69 d4 ba 8d 9b b3 b2 6e ec bb 38 ca a0 9b b4
       -0.0016205901 -2.0909079e-08 8.960893e-05 -2.898799e-07
000380 a7 5f 14 b8 49 90 07 ba 43 51 cf b5 2f fb 44 39
       -3.5375033e-05 -0.00051713415 -1.5446352e-06 0.0001878559
000390 f7 e0 b4 aa 80 0d 9c ba 86 56 b1 b4 70 d4 59 38
       -3.2130524e-13 -0.0011905879 -3.3031773e-07 5.193468e-05
0003a0 cd 72 4b 2f 4e e1 ca 3a 0d 2d a0 ba 0b e7 73 b9
       1.8503528e-10 0.0015478523 -0.0012220457 -0.00023260356
0003b0 6b e7 da b8 06 06 33 ba 92 bd 99 b8 61 27 ee ba
       -0.00010438155 -0.00068292057 -7.330919e-05 -0.0018169695
0003c0 bb b2 6d b6 2f fc 67 b8 d8 a7 d6 35 30 cf 94 b0
       -3.5419787e-06 -5.5309556e-05 1.5993091e-06 -1.0827303e-09
0003d0 99 ae f3 b9 69 bd 04 b8 53 cd c0 bb d8 30 1e b9
       -0.00046478657 -3.1647654e-05 -0.0058838516 -0.0001508625
0003e0 0d d5 5a b9 92 d8 32 ba 7b a6 0e b9 1a 3f 62 38
       -0.00020869468 -0.00068224326 -0.00013604194 5.3941367e-05
0003f0 f8 e8 98 bb 87 a5 3d 37 ab 70 a6 38 24 f6 45 31
       -0.004666444 1.1303818e-05 7.936483e-05 2.8807188e-09

fc2.bias f4 [32]
000000 06 0b cd bd ba fa d8 b7 f2 c3 99 3d 37 67 04 bb
       -0.10011868 -2.586596e-05 0.07508077 -0.0020203122
000010 c1 6e d7 ac 11 e9 f8 bd 94 30 f1 bb da ef fe a6
       -6.1229637e-12 -0.12153829 -0.0073605273 -1.7689802e-15
000020 e3 f8 e9 3c ae f6 fd ae ae 5b 9c 3d c0 1b d2 3d
       0.028561061 -1.1548927e-10 0.07634674 0.10259199
000030 a4 6e 1a bc 51 a5 47 9d 7f 44 08 bd ea bc 5b 3d
       -0.009425793 -2.6422897e-21 -0.033268448 0.05364696
000040 47 34 03 3e a9 0a 32 3b bc cc ea b0 41 ef a2 8e
       0.12812911 0.0027166998 -1.708393e-09 -4.0166476e-30
000050 84 d4 87 3d 54 8b a7 3c fa ec 93 bb d6 e1 94 bd
       0.06632331 0.020452179 -0.004514334 -0.07269637
000060 0c f7 0e 3e ec 63 c6 b5 cb 2a 05 3d 65 5a ac b8
       0.13961428 -1.4781231e-06 0.032511514 -8.2184364e-05
000070 11 19 b3 b8 fa 63 21 97 cb 3d a3 3d a0 9e d3 b8
       -8.540054e-05 -5.2148094e-25 0.079707704 -0.0001009081

fc3.weight f4 [1, 32]
000000 ff af 4d be 25 db 59 37 d7 8d 64 be f5 07 06 3a
       -0.20086668 1.29852315e-05 -0.22319733 0.000511288
000010 43 10 64 b8 9a a3 e5 be 43 12 54 be 74 b1 66 b8
       -5.437458e-05 -0.4485138 -0.20710091 -5.500154e-05
000020 e0 8a 59 3e 96 56 cb ba 4d c2 a6 be 87 57 ce be
       0.21244383 -0.0015513476 -0.32570115 -0.40301153
000030 90 51 7f be 32 42 83 38 5b 8b 46 be aa 70 81 3e
       -0.24933457 6.2588966e-05 -0.19389097 0.25281268
000040 55 e0 c2 3e 7d 8b 37 3e c2 a3 08 b7 e1 77 c6 b8
       0.38061777 0.17924304 -8.1443595e-06 -9.463705e-05
000050 a5 06 84 be b7 c8 06 bf a9 18 8c ba 32 be fc be
       -0.2578632 -0.52650017 -0.0010688502 -0.49363858
000060 48 40 0e bf 3c 88 a9 ba f0 c9 93 be 4d 05 81 39
       -0.55566835 -0.0012934278 -0.28865004 0.00024608747
000070 5e 22 91 39 92 37 02 b4 e0 9a f4 3e ef 2e 98 ba
       0.0002768216 -1.212741e-07 0.4777441 -0.0011610667
